models/GRU_model_mse.onnx (onnx, 43331 bytes, 4 tensors)

sequential_2_1/gru_1/gru_cell_1/split/ReadVariableOp/resource:0 f4 [2, 150]
0	0x3eb05311	0.34438375
1	0xbe645ca2	-0.22300962
2	0x3d7eaeab	0.062178295
3	0xbf7d3fda	-0.98925555
4	0xbf76d8fd	-0.9642485
5	0xbf06d078	-0.5266185
6	0x3eaf5ab0	0.34248877
7	0xbeea6bf9	-0.45785502
8	0xbebf5e75	-0.37376752
9	0xbf833a6b	-1.0252203
10	0xbfa8b620	-1.318058
11	0xbf62d8d6	-0.88612115
12	0x3d7c6f19	0.06162939
13	0xbed6b6e3	-0.41936406
14	0x3ecec050	0.40381098
15	0xbd1e68b4	-0.03867407
16	0x3e6ce0ce	0.23132631
17	0xbf702992	-0.9381343
18	0x3f2dbb45	0.67863876
19	0xbf3d49de	-0.7394084
20	0xbfa2b294	-1.2710748
21	0x3e02930a	0.12751403
22	0x3f27e69a	0.65586245
23	0x3f5399bd	0.8265646
24	0xbd4740f3	-0.048645925
25	0xbf120955	-0.5704549
26	0x3e5ccd3e	0.21562669
27	0xbeb0a6dc	-0.34502304
28	0x3f0160f4	0.50538564
29	0xbf04180d	-0.515992
30	0x3f018448	0.5059247
31	0xbf182b66	-0.5944122
32	0xbe39640d	-0.18104573
33	0xbdd28db5	-0.10280935
34	0xbef65263	-0.4810973
35	0x3f0c60e7	0.5483536
36	0xbee92017	-0.45532295
37	0xbe30ebd1	-0.17277457
38	0xbf6736de	-0.90318096
39	0x3f110c36	0.5665926
40	0xbecc05dc	-0.3984822
41	0x3ec2b835	0.38031164
42	0x3dedfa8c	0.11620054
43	0xbf5b630d	-0.85698014
44	0xbff56769	-1.9172183
45	0x3b4cbfe5	0.0031242308
46	0xbd0d9e50	-0.034574807
47	0x3e24932c	0.16071767
48	0x3e2addd7	0.16686188
49	0x3d2be962	0.041970618
50	0x3def60aa	0.11688359
51	0xbe5c630d	-0.2152216
52	0x3eb11a5d	0.34590426
53	0x3d0c1d43	0.034207594
54	0x3e4116c4	0.1885634
55	0xbef547dd	-0.4790639
56	0x3e759aea	0.23984876
57	0xbdb5f4af	-0.0888456
58	0xbd3be095	-0.045868475
59	0xbedd7059	-0.43249777
60	0xbea7f00e	-0.32800335
61	0xbe1f16b7	-0.15536009
62	0xbf6c1d3a	-0.92232096
63	0xbe8168da	-0.25275308
64	0xbb78f48e	-0.0037987563
65	0xbdc9f7b9	-0.098617025
66	0x3e1bd656	0.15218481
67	0xbd40f129	-0.04710499
68	0xbd67f18d	-0.056626845
69	0xbe093a76	-0.13401207
70	0xbe4396e5	-0.1910053
71	0xb9f60730	-0.00046926131
72	0x3d456582	0.04819251
73	0x3e57e62d	0.21083899
74	0x3d819a2f	0.06328236
75	0xbe2e80d9	-0.17041339
76	0x3f01d63f	0.5071754
77	0xbe867bf0	-0.26266432
78	0x3e4322ce	0.19056246
79	0xbd89a7bd	-0.06721447
80	0x3d621bc1	0.05520225
81	0xbd708d40	-0.058728456
82	0xbe6a9549	-0.2290851
83	0xbf2aba37	-0.6669039
84	0xbf3e20ec	-0.74268985
85	0x3dc6fd51	0.09716285
86	0x3eac2588	0.33622384
87	0xbf13091d	-0.5743578
88	0xbf155d13	-0.58345145
89	0xbe286387	-0.16444217
90	0xbecd939a	-0.40151674
91	0x3d261633	0.040548515
92	0xbf42edd3	-0.7614414
93	0xbd9e75e9	-0.07737333
94	0x3e5f19e3	0.21787219
95	0x3e700d61	0.23442604
96	0xbf188c5f	-0.5958919
97	0x3e629e0e	0.22130606
98	0x3e458fae	0.1929309
99	0x3dfbef07	0.1230145
100	0xbe02f78d	-0.12789746
101	0x3e727e23	0.2368093
102	0xbdb0f626	-0.08640699
103	0xbd20e879	-0.039284203
104	0x3dfd5044	0.12368825
105	0xbcc2ae68	-0.023764804
106	0xbb0491a9	-0.0020228422
107	0x3e24074e	0.16018412
108	0x3c21952e	0.009862227
109	0xbe89da27	-0.2692425
110	0x3ee663e1	0.44998077
111	0x3c460891	0.012087003
112	0x3d1b6c45	0.03794505
113	0x3df01e5b	0.1172454
114	0xbcfc9b21	-0.03083569
115	0xbd9d19b4	-0.07670918
116	0x3c1253f7	0.008931152
117	0x3d15aebb	0.03654359
118	0x3cecff8b	0.028930446
119	0x3e8dca11	0.27693227
120	0x3bc5d938	0.0060378574
121	0x3e9e251c	0.30887687
122	0x3dc53c1c	0.096306056
123	0x3e14b0f2	0.14520624
124	0x3d031bf5	0.032009084
125	0xbd36f524	-0.044667378
126	0xbd0004a0	-0.03125441
127	0xbd9afe61	-0.0756805
128	0xbdbcfeba	-0.09228273
129	0xbe08a6c4	-0.13344866
130	0xbd893d75	-0.06701175
131	0x3da025e7	0.07819729
132	0xbd8891c0	-0.066684246
133	0xbc273c24	-0.01020721
134	0x3dd05699	0.10172767
135	0xbd3873f6	-0.045032464
136	0xbc92ed40	-0.017935395
137	0xbddd600d	-0.10809336
138	0xbe44c9f5	-0.19217665
139	0xbe2117e4	-0.1573177
140	0x3e12cb0d	0.1433527
141	0xbe2448ee	-0.16043445
142	0x39194707	0.00014617677
143	0x3de2969a	0.11063881
144	0xbe03bbe4	-0.12864643
145	0x3e648eb2	0.22320059
146	0xbcefd6d5	-0.029277245
147	0x3d3b85e6	0.045781992
148	0x3db35070	0.087555766
149	0x3ddeb7f3	0.10874929
150	0x3eb05311	0.34438375
151	0xbe645ca2	-0.22300962
152	0x3d7eaeab	0.062178295
153	0xbf7d3fda	-0.98925555
154	0xbf76d8fd	-0.9642485
155	0xbf06d078	-0.5266185
156	0x3eaf5ab0	0.34248877
157	0xbeea6bf9	-0.45785502
158	0xbebf5e75	-0.37376752
159	0xbf833a6b	-1.0252203
160	0xbfa8b620	-1.318058
161	0xbf62d8d6	-0.88612115
162	0x3d7c6f19	0.06162939
163	0xbed6b6e3	-0.41936406
164	0x3ecec050	0.40381098
165	0xbd1e68b4	-0.03867407
166	0x3e6ce0ce	0.23132631
167	0xbf702992	-0.9381343
168	0x3f2dbb45	0.67863876
169	0xbf3d49de	-0.7394084
170	0xbfa2b294	-1.2710748
171	0x3e02930a	0.12751403
172	0x3f27e69a	0.65586245
173	0x3f5399bd	0.8265646
174	0xbd4740f3	-0.048645925
175	0xbf120955	-0.5704549
176	0x3e5ccd3e	0.21562669
177	0xbeb0a6dc	-0.34502304
178	0x3f0160f4	0.50538564
179	0xbf04180d	-0.515992
180	0x3f018448	0.5059247
181	0xbf182b66	-0.5944122
182	0xbe39640d	-0.18104573
183	0xbdd28db5	-0.10280935
184	0xbef65263	-0.4810973
185	0x3f0c60e7	0.5483536
186	0xbee92017	-0.45532295
187	0xbe30ebd1	-0.17277457
188	0xbf6736de	-0.90318096
189	0x3f110c36	0.5665926
190	0xbecc05dc	-0.3984822
191	0x3ec2b835	0.38031164
192	0x3dedfa8c	0.11620054
193	0xbf5b630d	-0.85698014
194	0xbff56769	-1.9172183
195	0x3b4cbfe5	0.0031242308
196	0xbd0d9e50	-0.034574807
197	0x3e24932c	0.16071767
198	0x3e2addd7	0.16686188
199	0x3d2be962	0.041970618
200	0x3def60aa	0.11688359
201	0xbe5c630d	-0.2152216
202	0x3eb11a5d	0.34590426
203	0x3d0c1d43	0.034207594
204	0x3e4116c4	0.1885634
205	0xbef547dd	-0.4790639
206	0x3e759aea	0.23984876
207	0xbdb5f4af	-0.0888456
208	0xbd3be095	-0.045868475
209	0xbedd7059	-0.43249777
210	0xbea7f00e	-0.32800335
211	0xbe1f16b7	-0.15536009
212	0xbf6c1d3a	-0.92232096
213	0xbe8168da	-0.25275308
214	0xbb78f48e	-0.0037987563
215	0xbdc9f7b9	-0.098617025
216	0x3e1bd656	0.15218481
217	0xbd40f129	-0.04710499
218	0xbd67f18d	-0.056626845
219	0xbe093a76	-0.13401207
220	0xbe4396e5	-0.1910053
221	0xb9f60730	-0.00046926131
222	0x3d456582	0.04819251
223	0x3e57e62d	0.21083899
224	0x3d819a2f	0.06328236
225	0xbe2e80d9	-0.17041339
226	0x3f01d63f	0.5071754
227	0xbe867bf0	-0.26266432
228	0x3e4322ce	0.19056246
229	0xbd89a7bd	-0.06721447
230	0x3d621bc1	0.05520225
231	0xbd708d40	-0.058728456
232	0xbe6a9549	-0.2290851
233	0xbf2aba37	-0.6669039
234	0xbf3e20ec	-0.74268985
235	0x3dc6fd51	0.09716285
236	0x3eac2588	0.33622384
237	0xbf13091d	-0.5743578
238	0xbf155d13	-0.58345145
239	0xbe286387	-0.16444217
240	0xbecd939a	-0.40151674
241	0x3d261633	0.040548515
242	0xbf42edd3	-0.7614414
243	0xbd9e75e9	-0.07737333
244	0x3e5f19e3	0.21787219
245	0x3e700d61	0.23442604
246	0xbf188c5f	-0.5958919
247	0x3e629e0e	0.22130606
248	0x3e458fae	0.1929309
249	0x3dfbef07	0.1230145
250	0xbe7aeb9f	-0.24503945
251	0x3e865426	0.26236075
252	0xbdd69ef4	-0.10479537
253	0xbd39aaf0	-0.045329034
254	0x3e1f0a07	0.15531169
255	0x3d8b17ab	0.06791624

sequential_2_1/gru_1/gru_cell_1/Cast_1/ReadVariableOp/resource:0 f4 [50, 150]
0	0xbe2f3186	-0.17108735
1	0x3f5dc945	0.8663524
2	0xbfd123a5	-1.6339003
3	0x3fb235af	1.3922633
4	0x3f56cfbb	0.8391072
5	0x40074eaa	2.1141763
6	0xbf09d36f	-0.5383825
7	0x3f8d2969	1.1028262
8	0x4008d294	2.1378527
9	0x3fbc010d	1.4687821
10	0x3fa1e1d7	1.2647046
11	0x3fe8e11a	1.8193696
12	0x3e681308	0.2266351
13	0x3ff44c3a	1.9085763
14	0xbc6d37bd	-0.014478621
15	0xbf729973	-0.94765395
16	0x3f2ac9d6	0.6671423
17	0x3fb1417f	1.3848113
18	0x3e8d00a6	0.27539557
19	0x3f9618a4	1.172627
20	0x3f2c2ae4	0.67252946
21	0x3f0a62b9	0.5405689
22	0xbed7c91f	-0.4214563
23	0xbf0b420b	-0.5439765
24	0x3f879d32	1.0594847
25	0x3fdcdba8	1.7254534
26	0xbec6168f	-0.38689086
27	0x40092c4c	2.1433287
28	0xbf3008c9	-0.68763405
29	0x3f997448	1.1988611
30	0xbe7d53b6	-0.24738964
31	0x3fb8f5ee	1.4450052
32	0x3e1742c4	0.14771563
33	0x3dfe30fe	0.12411688
34	0x3f3595a2	0.70931447
35	0xbe9d97bb	-0.30779824
36	0x3f520da8	0.8205209
37	0x3e14216f	0.14465879
38	0x3e28d254	0.16486484
39	0x3eb5a99c	0.35480964
40	0x3f04b254	0.5183461
41	0xbf0d76d4	-0.5525944
42	0x3e9d48d0	0.30719614
43	0x3fb014f0	1.375639
44	0x3f85adcd	1.0443665
45	0xbe044fdd	-0.1292109
46	0x3f5fc7e7	0.874144
47	0xbf38739a	-0.72051394
48	0xbfee894e	-1.8635652
49	0x3e3ec92f	0.18631433
50	0x3d1c5231	0.03816432
51	0x3e76d495	0.24104531
52	0x3e2436f5	0.1603659
53	0xbec1235b	-0.37722287
54	0xbe109d7e	-0.14122579
55	0x3e8db556	0.2767741
56	0xbd00aafa	-0.031413056
57	0xbf0806ff	-0.53135675
58	0x3dfe4fb8	0.12417549
59	0x3eb41348	0.3517096
60	0xbcaafca3	-0.02087242
61	0x3d95b2ad	0.0730947
62	0x3f4c1302	0.79716504
63	0x3f1de69a	0.61679995
64	0x3d4a8855	0.049446423
65	0x3f34716f	0.70485586
66	0xbe8e845a	-0.2783535
67	0x3f3040ef	0.6884908
68	0x3c20bd83	0.009810808
69	0x3d8df792	0.06931986
70	0xbe092477	-0.13392816
71	0x3e87a9fa	0.2649687
72	0x3d2e7e28	0.04260078
73	0x3e1b37ee	0.15158054
74	0xbf27e266	-0.6557983
75	0xbdbcb92e	-0.09215008
76	0xbeb7f5b9	-0.3592966
77	0x3ed4e54d	0.41581193
78	0xbd8d5ad3	-0.06902089
79	0x3c70a580	0.014687896
80	0xbe09c431	-0.13453747
81	0xbe5d14e3	-0.21589999
82	0xbdb0ebf4	-0.086387545
83	0x3f954330	1.1661129
84	0x3ef9310e	0.48670238
85	0x3e2f8ae2	0.17142823
86	0xbe65871b	-0.2241482
87	0x3eada7d8	0.33917117
88	0x3ded2407	0.11579137
89	0xbedad2e0	-0.4273901
90	0x3e8c4a9c	0.27400672
91	0x3e68e387	0.22743045
92	0x3f0ef1d2	0.5583774
93	0x3eaf2003	0.3420411
94	0xbeb70733	-0.3574768
95	0xbe3ce716	-0.18447527
96	0x3f5d0a50	0.8634386
97	0x3e3dd7fe	0.18539426
98	0x3d2cd185	0.042192
99	0x3d9bac0f	0.07601177
100	0xbd23f08b	-0.04002432
101	0xbe1638e4	-0.1467014
102	0x3e1f6f35	0.15569766
103	0x3eea935d	0.45815554
104	0x3ecbb7ba	0.3978861
105	0xbd0b6e71	-0.034040872
106	0x3e59225d	0.21204515
107	0xbe847b73	-0.25875434
108	0x3e8010b8	0.25012755
109	0x3d5ec5c6	0.05438783
110	0xbe4c890f	-0.19974159
111	0x3ede36b8	0.43401122
112	0xbc91dd85	-0.017805824
113	0x3d9ea7ab	0.07746824
114	0x3e7f2e20	0.24919939
115	0x3ecf3b49	0.40474918
116	0x3dbf7442	0.09348346
117	0x3d0f938d	0.035052825
118	0xbd841bc7	-0.064506106
119	0xbd457564	-0.048207656
120	0x3f046cf0	0.51728725
121	0x3e2e448d	0.17018338
122	0x3dbc8d58	0.09206647
123	0xbedd0383	-0.43166742
124	0x3d1b7bbd	0.037959803
125	0x3ec9fe6f	0.3945193
126	0xbeaa78fa	-0.33295423
127	0xbe5b380b	-0.21408097
128	0x3e3dea29	0.18546356
129	0x3e7141c5	0.23560245
130	0xbe9663d3	-0.29373035
131	0xbece09e4	-0.4024192
132	0x3e9e66a8	0.30937696
133	0xbe3c9fdb	-0.18420355
134	0xbd95eb71	-0.073202975
135	0x3e3ab13d	0.18231674
136	0xba0cce38	-0.0005371305
137	0x3ea0346c	0.31289995
138	0x3e535c06	0.20640573
139	0xbe0375be	-0.12837884
140	0xbd7745fb	-0.060369473
141	0xbe3ff958	-0.18747461
142	0xbdd7efdb	-0.10543796
143	0xbdf8a801	-0.12141419
144	0xbe9a3ffa	-0.30126935
145	0xbee87cf9	-0.45407847
146	0x3e2d9190	0.16950059
147	0x3e8ef6ae	0.27922577
148	0xbe836fc2	-0.25671202
149	0xbed045e1	-0.40678313
150	0x3f9bcf29	1.2172595
151	0xbe98a945	-0.29816642
152	0xbe8c5be7	-0.27413866
153	0x3e5b4c19	0.21415748
154	0x3f54834a	0.8301283
155	0x3ec893c5	0.3917524
156	0xbe4e834c	-0.20167273
157	0xbe9e3f14	-0.309075
158	0xbee489ba	-0.44636327
159	0x3dddc08d	0.10827742
160	0x3e8504c8	0.2598021
161	0x3d6680ab	0.05627505
162	0x3f05b38f	0.5222711
163	0x3f64f47b	0.8943555
164	0xbf945a61	-1.1590081
165	0x3ec2b949	0.38031986
166	0x3d47c4b0	0.04877156
167	0x3e9c3033	0.30505523
168	0x3ee8fc84	0.45505154
169	0x3f158b35	0.5841554
170	0x3d401de9	0.046903525
171	0x3f8becea	1.0931675
172	0xbf3ee102	-0.74562085
173	0x3d19b107	0.037522342
174	0x3effc77d	0.49956885
175	0x3e844452	0.25833374
176	0xbebd88ea	-0.3701852
177	0x3d11267c	0.035437092
178	0xbfab8fe1	-1.3403283
179	0x3effca5c	0.49959075
180	0xbf988230	-1.191473
181	0x3e87d915	0.26532808
182	0x3f0f540e	0.5598763
183	0x3f0fc4ee	0.56159866
184	0xbe369949	-0.17831911
185	0xbf71745e	-0.9431819
186	0x3efc4417	0.49270698
187	0x3f5eaffe	0.8698729
188	0x3f0a9c42	0.5414468
189	0x3e6d02f6	0.23145661
190	0x3ed8bcc3	0.42331514
191	0xbf15659a	-0.58358157
192	0x3f1c9993	0.61171836
193	0x3ec74522	0.38919932
194	0x3ec8da1c	0.39228904
195	0xbea30656	-0.3184077
196	0x3ef5a082	0.4797402
197	0xbd46d028	-0.048538357
198	0xbe119391	-0.14216448
199	0x3e648ff1	0.22320534
200	0x3e2c0625	0.16799219
201	0x3e8cda1b	0.2751015
202	0x3ec3389d	0.3812913
203	0xbedb7f44	-0.42870533
204	0xbe0550eb	-0.13019149
205	0xbd043f67	-0.032287028
206	0x3e139d5b	0.14415495
207	0x3fa14407	1.2598885
208	0x3fcfe74f	1.6242465
209	0x3e3f8502	0.18703082
210	0xbe865af3	-0.26241264
211	0xbea6a9db	-0.32551464
212	0x3e976e8a	0.29576522
213	0x3e2d9e7c	0.16954988
214	0x3f158bab	0.5841624
215	0xbee02d60	-0.43784618
216	0x3e83fe03	0.25779733
217	0xbf198e3b	-0.5998265
218	0xbe17327c	-0.14765352
219	0xbee52ec7	-0.4476225
220	0x3f1735e8	0.5906663
221	0xbc8ff1d0	-0.01757136
222	0x3f014fbc	0.5051229
223	0xbe364506	-0.17799768
224	0x3f03415f	0.51271623
225	0xbeb0739f	-0.34463212
226	0xbe87dffa	-0.26538068
227	0x3f78491f	0.96986574
228	0x3f025535	0.50911266
229	0xbe12da04	-0.14340979
230	0x3f6b5f90	0.9194269
231	0xbe54c4b7	-0.20778166
232	0x3da46188	0.08026415
233	0x3e9fdf73	0.31225166
234	0x3f244886	0.6417316
235	0x3ed7caa3	0.42146787
236	0xbea6292b	-0.32453284
237	0xbe833265	-0.25624385
238	0xbcc8c209	-0.024506586
239	0xbea6fce7	-0.32614824
240	0xbe8011d2	-0.25013596
241	0xbea76d37	-0.32700512
242	0x3ef705ba	0.48246557
243	0xbf245b4a	-0.64201796
244	0xbee8b6e1	-0.45452026
245	0xbf0b19a9	-0.5433603
246	0x3eed0f63	0.46300802
247	0xbe6c9bbf	-0.23106287
248	0x3e0789f3	0.13236217
249	0xbe1be2b5	-0.152232
250	0xbd6e8714	-0.05823429
251	0xbc0cc4cd	-0.008591843
252	0xbe5bf46a	-0.21479955
253	0x3b50595d	0.0031791546
254	0xbbfdb513	-0.007742533
255	0x3eac8467	0.33694765

sequential_2_1/gru_1/gru_cell_1/Cast/ReadVariableOp/resource:0 f4 [1, 150]
0	0xbed80a77	-0.42195484
1	0x3e92f45c	0.28702056
2	0xbf1916b4	-0.5980027
3	0xbf4873f4	-0.7830193
4	0xbfada7a8	-1.356679
5	0xbf10f2d3	-0.5662052
6	0x3eec9f08	0.4621508
7	0xbe9d3cc1	-0.30710414
8	0xbe4091e0	-0.18805647
9	0xbf2729c6	-0.65298116
10	0xbfaeb0c2	-1.3647692
11	0xbf66025c	-0.8984735
12	0x3dc9b6df	0.09849333
13	0xbd4c1277	-0.049822297
14	0x3f1b61ff	0.60696405
15	0xbdb64f73	-0.089018725
16	0xbe8775d4	-0.26457083
17	0xbeec4b2f	-0.4615111
18	0x3e15b2e6	0.14619026
19	0xbf135f95	-0.5756772
20	0xbfa8dc8c	-1.3192306
21	0xbd7960e0	-0.060883403
22	0x3f8bb329	1.091405
23	0x3f299695	0.66245395
24	0x3e04f510	0.12984109
25	0xbe2c94f6	-0.16853699
26	0xbc94e478	-0.018175349
27	0xbe1e77e0	-0.15475416
28	0x3d741fb0	0.059600532
29	0xbf3b3941	-0.7313424
30	0x3f11d7e9	0.5697008
31	0xbe16d1a2	-0.14728406
32	0xbc8360d1	-0.016037377
33	0xbe2249ba	-0.15848437
34	0xbeb8391e	-0.35981077
35	0x3f65f101	0.8982087
36	0xbe948d25	-0.29013935
37	0xbdb6aa50	-0.08919203
38	0xbf1b86df	-0.6075267
39	0xbb9f23f5	-0.0048565813
40	0xbeaf77fd	-0.3427123
41	0x3f101953	0.5628864
42	0x3e3bd7c1	0.18344022
43	0xbf4112ef	-0.75419515
44	0xbfc025e1	-1.501156
45	0xbef1e4cf	-0.4724488
46	0xbea1ed2d	-0.31626263
47	0x3e55d6fd	0.20882793
48	0xbec8fc23	-0.39254865
49	0x3e494137	0.19653784
50	0xbf80d888	-1.006608
51	0xbefd457b	-0.49467072
52	0x3ed3c54a	0.41361457
53	0xbec8b5fd	-0.39201346
54	0x3dccbff5	0.099975504
55	0xbe8d6d33	-0.27622375
56	0x3deffcea	0.117181614
57	0xbf259cea	-0.64692557
58	0xc00bd0ae	-2.1846118
59	0xbf8a1ed6	-1.079066
60	0xbf390edd	-0.72288305
61	0xbf2afb88	-0.66790056
62	0xbfb83314	-1.4390588
63	0xbf3497fa	-0.705444
64	0x3e83fc27	0.25778314
65	0xbdbdd70c	-0.092695326
66	0x3c2545a4	0.010087404
67	0x3e685c9a	0.22691575
68	0xbe6a500d	-0.228821
69	0xbe148786	-0.14504823
70	0x3e8d444e	0.27591175
71	0xbf774234	-0.9658539
72	0xbe6e01b8	-0.23242843
73	0x3e28f207	0.16498576
74	0xbf05da7f	-0.52286524
75	0xbf46efee	-0.77709854
76	0x3ed79e80	0.42113113
77	0xbf78f4db	-0.9724862
78	0x3ead4063	0.33838186
79	0x3e479981	0.19492151
80	0x3e03f926	0.12888011
81	0xbf32ea07	-0.6988835
82	0xbeb367e0	-0.35040188
83	0xbf7680f9	-0.96290547
84	0xbf2bb6a3	-0.67075557
85	0xbe86b7b5	-0.26312032
86	0x3c44e78a	0.012018094
87	0xbe96f69a	-0.29485017
88	0xbefbe242	-0.4919606
89	0xbecb5b12	-0.3971792
90	0xbf5a30cd	-0.85230714
91	0x3e8db531	0.276773
92	0xbf0b0643	-0.5430643
93	0x3da58ea5	0.08083848
94	0x3da5babd	0.08092258
95	0x3ed98e32	0.424913
96	0xbf59f735	-0.85142833
97	0x3e5f8b49	0.21830477
98	0xbda6a1c0	-0.0813632
99	0x3eeab9ab	0.45844778
100	0x3f469edc	0.7758615
101	0xbf04447b	-0.5166699
102	0x3e845319	0.25844648
103	0x3f01c9f8	0.50698805
104	0x3e7748b6	0.24148831
105	0x3e8dc8be	0.27692217
106	0xbe0790ac	-0.13238782
107	0xbed0a2cc	-0.40749204
108	0xbe7056b0	-0.23470569
109	0x3efe7eeb	0.49706206
110	0xbf5b0442	-0.8555337
111	0x3f15cd48	0.5851636
112	0xbe78439c	-0.24244541
113	0xbe8ec118	-0.27881694
114	0xbc66e199	-0.014091873
115	0xbdd1e032	-0.1024784
116	0xbe323b12	-0.17405346
117	0xbe84125c	-0.25795257
118	0xbe7b308f	-0.24530242
119	0xbf17163e	-0.59018314
120	0x3dce2a70	0.10066688
121	0xbf24af95	-0.64330417
122	0x3d2ada78	0.041712254
123	0x3c206516	0.009789726
124	0x3df5a56d	0.11994443
125	0x3f03602c	0.5131862
126	0x3db1e506	0.08686261
127	0x3e225200	0.15851593
128	0x3bae54b8	0.005320158
129	0x3edbd07f	0.42932507
130	0xbdaf83f3	-0.08570089
131	0xbf2094be	-0.6272696
132	0x3eb0ceec	0.3453287
133	0x3ee588f4	0.4483105
134	0xbe3963a6	-0.18104419
135	0xbdc46747	-0.09590011
136	0x3e8a5b73	0.27022895
137	0x3e87571d	0.2643365
138	0x3e9def41	0.308466
139	0xbc81824c	-0.0158092
140	0xbe8242c6	-0.2544157
141	0x3cd1d0c3	0.02561224
142	0xbeb0af8d	-0.34508935
143	0xbed58141	-0.41700175
144	0xbebdbe47	-0.37059233
145	0xbd3982b2	-0.045290656
146	0x3e8a46ca	0.27007133
147	0x3d00da38	0.03145811
148	0xbe879798	-0.26482844
149	0x3d5acab8	0.053415984

sequential_2_1/dense_2_1/Cast/ReadVariableOp:0 f4 [50, 1]
0	0xbe1df78c	-0.15426463
1	0xbc5ae199	-0.013359451
2	0xbd556319	-0.05209646
3	0x3df69b2b	0.12041315
4	0x3e86a0a8	0.26294446
5	0x3ea8ca69	0.32966927
6	0x3d2f8825	0.042854447
7	0x3c9dee29	0.019278603
8	0xbe868c26	-0.262788
9	0x3da21cd1	0.079156525
10	0xbde89db2	-0.11358203
11	0x3ec8a388	0.39187264
12	0xbe88ef53	-0.2674509
13	0xbe04ea28	-0.12979949
14	0xbddf0004	-0.10888675
15	0x3d7708fb	0.0603113
16	0x3d1a1d10	0.037625372
17	0xbdc4874a	-0.09596117
18	0x3c8d7a91	0.017270358
19	0xbd34365c	-0.043997154
20	0x3e5434c0	0.20723248
21	0x3dd61266	0.10452728
22	0x3db82705	0.089918174
23	0x3dc2a85c	0.09504768
24	0x3db7cbfb	0.08974453
25	0x3e855eda	0.26048928
26	0xbc9e5125	-0.019325802
27	0x3e1e21d5	0.15442593
28	0xbe6c4e09	-0.23076643
29	0x3de1650b	0.110056005
30	0x3e1ce35a	0.15321103
31	0xbe450de3	-0.19243579
32	0x3e396f69	0.18108906
33	0x3ec6007b	0.38672242
34	0xbe284dc1	-0.16435911
35	0xbdb5228b	-0.08844479
36	0x3c50eede	0.012752263
37	0x3e196de3	0.14983325
38	0x3db4a634	0.08820763
39	0x3d0fa2a7	0.035067227
40	0xbe272d5f	-0.16325901
41	0xbd1b94d7	-0.03798374
42	0xbec33da0	-0.38132954
43	0xbd1591d3	-0.036516022
44	0xbe9d6155	-0.3073832
45	0x3d98d5c1	0.07462645
46	0x3e88a84a	0.26690894
47	0x3dab3335	0.08359376
48	0x3ce61585	0.028086433
49	0xbe02ccad	-0.1277339
