models/GRU_model_mae.onnx (onnx, 42818 bytes, 4 tensors)

sequential_1/gru_1/gru_cell_1/split/ReadVariableOp/resource:0 f4 [2, 150]
0	0xbf79b187	-0.9753651
1	0x3f0e63f3	0.5562126
2	0xbec1a21b	-0.3781899
3	0xbe6c24ad	-0.23060866
4	0x3eb97f6f	0.36230037
5	0xbf81870e	-1.011934
6	0xbcaaf6dc	-0.020869665
7	0xbf5125a0	-0.81698036
8	0x3f0a46dd	0.5401438
9	0xbf2fdc86	-0.6869587
10	0xbefe9218	-0.49720836
11	0xbeb269db	-0.34846386
12	0xbf61bbbb	-0.8817708
13	0xbf5c869f	-0.86142915
14	0xbeb627e1	-0.355773
15	0xbf19d199	-0.60085446
16	0xbf876334	-1.0577149
17	0xbeae19a4	-0.34003937
18	0xbed99cfd	-0.42502585
19	0xbf39cf15	-0.7258161
20	0xbe912928	-0.28351712
21	0xbf6cdae7	-0.9252152
22	0xbc948472	-0.018129561
23	0xbdb3a338	-0.08771366
24	0xbf9b3034	-1.2124085
25	0xbe9bd656	-0.30436963
26	0x3f244e7d	0.64182264
27	0xbeec8219	-0.46193007
28	0x3f14e0f5	0.5815576
29	0xbf2e50fc	-0.6809232
30	0x3e8bb201	0.27284244
31	0xbf0bc0f7	-0.54591316
32	0x3ec2dad7	0.38057587
33	0xbeaad21a	-0.3336342
34	0xbf322438	-0.69586515
35	0xbe8b38b1	-0.2719169
36	0xbede4d83	-0.43418512
37	0x3f019b3a	0.5062748
38	0xbf37b3e0	-0.7175884
39	0x3ea4b6e1	0.32170776
40	0xbe62e300	-0.22156906
41	0x3efff41e	0.49990934
42	0xbebeec3d	-0.3728961
43	0x3f0c77e2	0.54870427
44	0x3e3c8f58	0.18414056
45	0xbf5a1107	-0.8518223
46	0xbf81db7d	-1.0145108
47	0x3ebb9fc0	0.36645317
48	0xbf15e7e2	-0.5855695
49	0xbdac037e	-0.083991036
50	0xbda015b7	-0.07816642
51	0x3e85d8cd	0.26141968
52	0x3d647afa	0.055781342
53	0xbe5ecaf2	-0.21757105
54	0xbdf2af3f	-0.11849832
55	0xbd12ddf8	-0.035856217
56	0x3dabd8f3	0.08390989
57	0xbe69996e	-0.22812435
58	0x3e5f6d27	0.21818982
59	0xbe99c956	-0.3003642
60	0x3e369b07	0.17832576
61	0xbf2543d2	-0.6455661
62	0xbf0066a5	-0.50156623
63	0xbf22e6f4	-0.63633657
64	0xbec74d9f	-0.38926408
65	0xbe8a17b8	-0.2697122
66	0x3d58f694	0.05296953
67	0xbdad76aa	-0.08469899
68	0xbdd066f2	-0.10175885
69	0xbf0add3f	-0.54243845
70	0x3d888a50	0.06667006
71	0xbef3daf8	-0.47627997
72	0xbe8bcf4c	-0.27306592
73	0x3dbdaac0	0.092610836
74	0xbdfcfbdc	-0.12352726
75	0xbe6d16d2	-0.23153237
76	0x3dcdd30e	0.10050021
77	0xbdc60d3b	-0.09670492
78	0x3ebbb9ef	0.36665294
79	0x3db8715f	0.09005999
80	0xbdf83b67	-0.12120705
81	0xbdc0111c	-0.09378263
82	0x3e665e93	0.22497015
83	0xbe90d4b7	-0.2828729
84	0xbe984b63	-0.29745016
85	0x3e155d3e	0.1458635
86	0xbdfc3efa	-0.12316699
87	0xbd06a112	-0.032868452
88	0xbf18a5c7	-0.59627956
89	0xbd30f3c3	-0.04320122
90	0xbdd40ea6	-0.103543565
91	0xbdaa03a6	-0.08301477
92	0xbe8a965a	-0.27067834
93	0xbcc9dcb6	-0.024641376
94	0x3e0ebc99	0.13939132
95	0xbd8d45f1	-0.06898106
96	0xbd41a37a	-0.047275044
97	0xbd7fad77	-0.06242129
98	0xbf07cf87	-0.53051037
99	0xbe3e3574	-0.18575078
100	0xbe3897a2	-0.18026593
101	0x3d1547e0	0.0364455
102	0x3e8a4cb5	0.27011648
103	0xbd828b07	-0.063741736
104	0x3c13002e	0.008972211
105	0x3ced80cb	0.028992077
106	0x3e39f8f9	0.18161382
107	0x3e95f6a8	0.29289746
108	0xb9f34bf0	-0.0004640515
109	0x3e2414a9	0.16023506
110	0xbe2a9912	-0.16659954
111	0xbb95d76c	-0.0045727994
112	0x3ba3dc18	0.0050006025
113	0xbbecd9ab	-0.0072280965
114	0xbe5499e2	-0.20761827
115	0xbd263fc3	-0.04058815
116	0xbb686fb2	-0.0035466966
117	0x3e1d7eea	0.15380445
118	0x3db28dc3	0.08718445
119	0xbe250065	-0.16113432
120	0x3e13ebf5	0.14445479
121	0x3bdc2ed1	0.006719448
122	0x3d4866ec	0.04892628
123	0xbdc687b2	-0.096938506
124	0xbe7c11ac	-0.24616116
125	0xbe84f2c9	-0.2596648
126	0xbdcabb98	-0.09899062
127	0x3d909c85	0.07061104
128	0x3db23279	0.08701033
129	0x3e8477ef	0.25872752
130	0x3e05c0bc	0.13061804
131	0xbdda66dd	-0.10664151
132	0x3d5967ee	0.05307763
133	0x3deee616	0.11664979
134	0xbe8d6846	-0.27618617
135	0xbcda9dfc	-0.026686661
136	0xbd93c510	-0.07215321
137	0x3ce4f0e4	0.027946897
138	0x3df584fb	0.11988255
139	0xbd4810ba	-0.048844077
140	0x3e1018a9	0.14071907
141	0x3d66b559	0.05632529
142	0xbe4858b1	-0.19565083
143	0x3e193d65	0.14964826
144	0xbc21da3f	-0.009878694
145	0xbe757cda	-0.23973408
146	0x3c307c87	0.010771877
147	0xbe5deaf1	-0.21671654
148	0xbdf29c14	-0.11846176
149	0xbe37b3da	-0.17939702
150	0xbf79b187	-0.9753651
151	0x3f0e63f3	0.5562126
152	0xbec1a21b	-0.3781899
153	0xbe6c24ad	-0.23060866
154	0x3eb97f6f	0.36230037
155	0xbf81870e	-1.011934
156	0xbcaaf6dc	-0.020869665
157	0xbf5125a0	-0.81698036
158	0x3f0a46dd	0.5401438
159	0xbf2fdc86	-0.6869587
160	0xbefe9218	-0.49720836
161	0xbeb269db	-0.34846386
162	0xbf61bbbb	-0.8817708
163	0xbf5c869f	-0.86142915
164	0xbeb627e1	-0.355773
165	0xbf19d199	-0.60085446
166	0xbf876334	-1.0577149
167	0xbeae19a4	-0.34003937
168	0xbed99cfd	-0.42502585
169	0xbf39cf15	-0.7258161
170	0xbe912928	-0.28351712
171	0xbf6cdae7	-0.9252152
172	0xbc948472	-0.018129561
173	0xbdb3a338	-0.08771366
174	0xbf9b3034	-1.2124085
175	0xbe9bd656	-0.30436963
176	0x3f244e7d	0.64182264
177	0xbeec8219	-0.46193007
178	0x3f14e0f5	0.5815576
179	0xbf2e50fc	-0.6809232
180	0x3e8bb201	0.27284244
181	0xbf0bc0f7	-0.54591316
182	0x3ec2dad7	0.38057587
183	0xbeaad21a	-0.3336342
184	0xbf322438	-0.69586515
185	0xbe8b38b1	-0.2719169
186	0xbede4d83	-0.43418512
187	0x3f019b3a	0.5062748
188	0xbf37b3e0	-0.7175884
189	0x3ea4b6e1	0.32170776
190	0xbe62e300	-0.22156906
191	0x3efff41e	0.49990934
192	0xbebeec3d	-0.3728961
193	0x3f0c77e2	0.54870427
194	0x3e3c8f58	0.18414056
195	0xbf5a1107	-0.8518223
196	0xbf81db7d	-1.0145108
197	0x3ebb9fc0	0.36645317
198	0xbf15e7e2	-0.5855695
199	0xbdac037e	-0.083991036
200	0xbda015b7	-0.07816642
201	0x3e85d8cd	0.26141968
202	0x3d647afa	0.055781342
203	0xbe5ecaf2	-0.21757105
204	0xbdf2af3f	-0.11849832
205	0xbd12ddf8	-0.035856217
206	0x3dabd8f3	0.08390989
207	0xbe69996e	-0.22812435
208	0x3e5f6d27	0.21818982
209	0xbe99c956	-0.3003642
210	0x3e369b07	0.17832576
211	0xbf2543d2	-0.6455661
212	0xbf0066a5	-0.50156623
213	0xbf22e6f4	-0.63633657
214	0xbec74d9f	-0.38926408
215	0xbe8a17b8	-0.2697122
216	0x3d58f694	0.05296953
217	0xbdad76aa	-0.08469899
218	0xbdd066f2	-0.10175885
219	0xbf0add3f	-0.54243845
220	0x3d888a50	0.06667006
221	0xbef3daf8	-0.47627997
222	0xbe8bcf4c	-0.27306592
223	0x3dbdaac0	0.092610836
224	0xbdfcfbdc	-0.12352726
225	0xbe6d16d2	-0.23153237
226	0x3dcdd30e	0.10050021
227	0xbdc60d3b	-0.09670492
228	0x3ebbb9ef	0.36665294
229	0x3db8715f	0.09005999
230	0xbdf83b67	-0.12120705
231	0xbdc0111c	-0.09378263
232	0x3e665e93	0.22497015
233	0xbe90d4b7	-0.2828729
234	0xbe984b63	-0.29745016
235	0x3e155d3e	0.1458635
236	0xbdfc3efa	-0.12316699
237	0xbd06a112	-0.032868452
238	0xbf18a5c7	-0.59627956
239	0xbd30f3c3	-0.04320122
240	0xbdd40ea6	-0.103543565
241	0xbdaa03a6	-0.08301477
242	0xbe8a965a	-0.27067834
243	0xbcc9dcb6	-0.024641376
244	0x3e0ebc99	0.13939132
245	0xbd8d45f1	-0.06898106
246	0xbd41a37a	-0.047275044
247	0xbd7fad77	-0.06242129
248	0xbf07cf87	-0.53051037
249	0xbe3e3574	-0.18575078
250	0xbe2565ec	-0.16152161
251	0xbce75976	-0.0282409
252	0x3e822054	0.2541529
253	0xbc9f150f	-0.019419221
254	0xbdfbec7e	-0.12300967
255	0x3d8c95bf	0.06864499

sequential_1/gru_1/gru_cell_1/Cast_1/ReadVariableOp/resource:0 f4 [50, 150]
0	0xbf8f8eda	-1.121547
1	0x3f80488e	1.0022142
2	0xbf675772	-0.90367806
3	0xbf981834	-1.1882386
4	0xbf1ae24b	-0.60501546
5	0xbfa164fc	-1.2608943
6	0xbf619b71	-0.8812781
7	0x3d660df9	0.05616567
8	0x3fb8d5ef	1.4440287
9	0xbfd2b732	-1.6462157
10	0x3e344bf2	0.17607096
11	0xbe6b1c4f	-0.22960018
12	0xbf4a8a3e	-0.7911719
13	0xbf9f4364	-1.2442441
14	0xbe25705c	-0.16156143
15	0xbdae0052	-0.08496155
16	0xbf1321ce	-0.57473457
17	0xbf3a9cdf	-0.72895616
18	0xbf5f4cb4	-0.87226415
19	0xbe8264b9	-0.2546747
20	0xbf96a024	-1.1767621
21	0x3ebafd13	0.36521205
22	0xbfe30427	-1.7735642
23	0x3f21e3ab	0.6323802
24	0x3d973dfc	0.073848695
25	0xbf8da135	-1.1064821
26	0xbdb74579	-0.08948798
27	0x3f3542c9	0.7080503
28	0x3f1a5abe	0.6029471
29	0xbe8ad944	-0.27118886
30	0x3f419d21	0.75630385
31	0xbf623a3c	-0.8837011
32	0x3f8b5177	1.0884236
33	0xbfb1151f	-1.3834571
34	0xbe583313	-0.21113233
35	0xbe1760a3	-0.14782958
36	0x3f002328	0.50053644
37	0x3e0a4a4c	0.13504905
38	0x3f939d1b	1.153232
39	0xbfef039c	-1.8672976
40	0xbf819a60	-1.0125237
41	0xbfb314d8	-1.3990736
42	0xbde6f822	-0.11277796
43	0x3f163d87	0.58687633
44	0x3eaffc29	0.3437207
45	0x3d80210f	0.062563054
46	0xbf84457f	-1.0333709
47	0x3e8f100e	0.27941936
48	0xbfd9819b	-1.6992677
49	0x3ea2e55f	0.3181562
50	0x3ee28566	0.442424
51	0xbf3a2165	-0.72707206
52	0xbf3ea18f	-0.7446527
53	0xbec7afbb	-0.3900126
54	0x3f2b94e5	0.6702407
55	0x3d54639c	0.051852807
56	0x3c51f343	0.012814346
57	0x3cdc136b	0.026864728
58	0xbf80088e	-1.0002611
59	0xbe49e803	-0.19717412
60	0x3ea92b49	0.33040836
61	0xbe3c1a30	-0.18369365
62	0xbea5493c	-0.32282436
63	0xbf5feb47	-0.8746838
64	0xbe93f591	-0.2889829
65	0x3e62671f	0.2210965
66	0x3f7914bb	0.9729726
67	0x3eec39a5	0.4613773
68	0xbd974c70	-0.07387626
69	0xbf9ea3a3	-1.2393688
70	0xbe17ff1e	-0.14843413
71	0xc0300365	-2.7502072
72	0xbe42c16d	-0.19019099
73	0x3eddbb97	0.43307182
74	0xbe39a726	-0.18130168
75	0x3ec24850	0.37945795
76	0x3f75bf00	0.9599457
77	0xbe9697fa	-0.29412824
78	0xbe92808e	-0.28613704
79	0xbec54289	-0.38527325
80	0x3db8e895	0.090287365
81	0xbdf9d94f	-0.121996514
82	0xbf91a966	-1.1379821
83	0x3f68a23e	0.9087256
84	0xbe0d18a5	-0.13778932
85	0x3f83f763	1.0309871
86	0xbebb9fad	-0.3664526
87	0x3f2fb8d2	0.6864139
88	0x3e1f3a24	0.15549523
89	0x3ce95ade	0.028485712
90	0xbe894fff	-0.26818845
91	0x3fceb895	1.615008
92	0xbe2afd10	-0.16698098
93	0xbe062bd2	-0.13102654
94	0x3f820404	1.0157475
95	0xbede1fcb	-0.4338363
96	0x3ef4b9fc	0.47798145
97	0xbf7999a3	-0.97500056
98	0xbf7b0d0c	-0.9806678
99	0xbe0c37f9	-0.13693227
100	0xbf02d59d	-0.511072
101	0x3f4628bc	0.77405906
102	0x3dd49122	0.103792444
103	0x3da233df	0.0792005
104	0x3e217e1d	0.15770765
105	0x3de80dc6	0.11330752
106	0x3d4de382	0.050265796
107	0x3d78763f	0.060659643
108	0xbf0e1cce	-0.555127
109	0xbe0dc29d	-0.1384377
110	0x3ea408f6	0.32038087
111	0xbd935828	-0.07194549
112	0x3e1a430b	0.15064637
113	0x3f5fa06c	0.8735416
114	0xbe377373	-0.17915134
115	0xbe0cf393	-0.13764791
116	0xbece5528	-0.40299344
117	0x3f1b6e50	0.607152
118	0x3e64a70e	0.22329351
119	0x3f14d2fa	0.58134425
120	0x3ea6b87b	0.32562622
121	0x3e9822f4	0.29714167
122	0xbccb4821	-0.024814667
123	0xbea34774	-0.31890452
124	0x3dde6196	0.10858457
125	0xbe5d1774	-0.21590978
126	0x3e7e00e4	0.24805027
127	0x3f04f809	0.5194097
128	0x3f51a2db	0.8188912
129	0xbd94e86f	-0.07270896
130	0xbe26af3c	-0.16277784
131	0xbeb2ef01	-0.3494797
132	0x3d50e215	0.05099686
133	0xbeccfe1f	-0.4003763
134	0xbe350029	-0.17675842
135	0x3f0f0377	0.5586466
136	0xbe52d902	-0.20590594
137	0x3e49ffb3	0.19726448
138	0x3e0c8dd1	0.13725974
139	0xbe27a46f	-0.1637132
140	0xbeda2fe9	-0.42614678
141	0x3ec5a71b	0.38604054
142	0x3d585af9	0.052821133
143	0xbd482116	-0.04885968
144	0xbc797d3f	-0.015227615
145	0x3ebd1186	0.36927432
146	0x3f0fc733	0.5616333
147	0x3f16877d	0.5880049
148	0x3f307a03	0.68936175
149	0x3eaf9e96	0.3430068
150	0xbfbebf46	-1.4902122
151	0x3cc8381c	0.024440818
152	0xbf3c240d	-0.7349251
153	0xbfa9a149	-1.3252345
154	0x3e878dfe	0.2647552
155	0xbc93b7f2	-0.018032048
156	0x3ee257ad	0.44207516
157	0xc006663d	-2.0999901
158	0x3f936fa3	1.1518444
159	0xbf5d4a20	-0.8644123
160	0xbeb6e8c4	-0.3572446
161	0xbe9dffd0	-0.30859232
162	0xbf296537	-0.66170067
163	0xc01fc6b2	-2.4965024
164	0xbfac2ace	-1.3450563
165	0xbfe89e6b	-1.8173345
166	0xbf5e482a	-0.86828864
167	0xbfaf29f2	-1.3684676
168	0xbf779e32	-0.9672576
169	0xbfd3a823	-1.6535686
170	0xbfa0c946	-1.2561424
171	0xc007b466	-2.1203856
172	0xbfaeb05d	-1.3647572
173	0xbfe4ddcd	-1.7880188
174	0xbf53df04	-0.8276217
175	0xbf57f954	-0.8436482
176	0xbecff67a	-0.40617734
177	0xc044cce2	-3.075005
178	0x3cb3f0e9	0.02196546
179	0xc055b66b	-3.339259
180	0x3f1ae005	0.60498077
181	0xbec32650	-0.38115168
182	0x3f835180	1.0259247
183	0xbc955068	-0.018226817
184	0xbea2b2fd	-0.31777182
185	0xbffdc57c	-1.9825892
186	0x3efd0d37	0.49424145
187	0x3e972bf1	0.29525712
188	0xc00f9ffb	-2.2441394
189	0xbf9f7159	-1.2456466
190	0xc002d544	-2.0442667
191	0x3c8e00b1	0.017334314
192	0xbfa684b6	-1.300925
193	0x3d2cda38	0.042200297
194	0x3e5c7b6a	0.21531454
195	0x3f0bcf44	0.5461314
196	0xbf665688	-0.89975786
197	0xbf4d5f65	-0.80223686
198	0xc00df99a	-2.2183595
199	0xc01e0db8	-2.4695873
200	0xbf45549b	-0.7708222
201	0x3f38a2b1	0.7212325
202	0x3e93a8bd	0.28839675
203	0x3e8ac98b	0.2710689
204	0x3f578f9d	0.8420351
205	0xbe953fb4	-0.29150164
206	0x3ed9725c	0.42470062
207	0x3f28edeb	0.65988034
208	0xbe1b22ea	-0.15150037
209	0x3e4e6c43	0.20158486
210	0xbe6cf7e3	-0.23141436
211	0x3e07f319	0.13276328
212	0x3e934228	0.2876141
213	0x3eff2952	0.49836212
214	0xbf1e8a43	-0.6192972
215	0x3e380310	0.17969918
216	0x3e9747c9	0.29546955
217	0xbe81a859	-0.25323752
218	0xbed49b13	-0.41524562
219	0x3f13523a	0.5754734
220	0x3ee7f47f	0.45303723
221	0x3f92fc3b	1.1483225
222	0x3efb402e	0.49072403
223	0x3f196a1c	0.59927535
224	0xbf02a74b	-0.5103652
225	0x3d827968	0.06370813
226	0x3ecae143	0.39624986
227	0x3f6bdb20	0.92131233
228	0x3e7ae975	0.2450312
229	0x3f2a598c	0.6654289
230	0x3f14df78	0.58153486
231	0xbe9fa8ed	-0.31183568
232	0x3e495fe3	0.19665484
233	0x3f8c73c5	1.097283
234	0x3e2bb584	0.16768461
235	0x3f328d63	0.6974699
236	0x3f0800cc	0.53126216
237	0x3f577262	0.8415891
238	0x3e9a9c8d	0.30197564
239	0xbeaaf5b8	-0.33390594
240	0x3d6ccbf4	0.057811692
241	0x3f500889	0.81263024
242	0xbf62e222	-0.886263
243	0x3ebfe860	0.37481976
244	0x3e132122	0.14368108
245	0xbe033fa3	-0.12817244
246	0xbf68cde3	-0.9093916
247	0xbf279710	-0.6546488
248	0x3fee8cba	1.8636696
249	0x3f093e92	0.536111
250	0x3d825904	0.06364635
251	0x3c30dcc5	0.010794823
252	0xbe9e4cb1	-0.30917886
253	0x3e8f9ad8	0.28047824
254	0xbf32aef5	-0.69798213
255	0xbec6bded	-0.38816777

sequential_1/gru_1/gru_cell_1/Cast/ReadVariableOp/resource:0 f4 [1, 150]
0	0xbf7fa930	-0.99867535
1	0x3f53c2b0	0.82718945
2	0xbe1fe4b4	-0.15614587
3	0x3e15f533	0.14644317
4	0x3c1237d7	0.008924446
5	0xbf6d7323	-0.9275381
6	0xbead263e	-0.3381824
7	0xbf6811b2	-0.90652
8	0x3f14f150	0.58180714
9	0xbf24f02e	-0.64428985
10	0xbf668758	-0.9005027
11	0xbe0741c5	-0.13208683
12	0xbec1a364	-0.3781997
13	0xbf3fadbc	-0.7487447
14	0xbee054e4	-0.43814766
15	0xbdfd2e1e	-0.12362312
16	0xbf572c91	-0.8405238
17	0xbf10c6ea	-0.5655352
18	0x3e21e412	0.15809658
19	0xbf0ae02d	-0.54248315
20	0xbede62a7	-0.4343464
21	0xbf2e55d9	-0.68099743
22	0x3f3cce06	0.73751867
23	0x3e0d484e	0.13797113
24	0xbf28d572	-0.6595069
25	0xbf3eec6c	-0.745795
26	0x3d889806	0.06669621
27	0xbf7afb92	-0.98040116
28	0x3f8d3527	1.1031846
29	0xbea4f0d7	-0.32214996
30	0x3f0642da	0.5244576
31	0x3d7d4a97	0.061838713
32	0x3e96299d	0.29328623
33	0xbebad676	-0.36491746
34	0xbef2aefc	-0.47399127
35	0xbe84697f	-0.25861737
36	0xbf62b21e	-0.88553035
37	0xbdcfacb0	-0.101403594
38	0xbf12a2fc	-0.57279944
39	0x3eb5adfd	0.35484305
40	0x3f2e5dc5	0.6811183
41	0x3e9c319c	0.305066
42	0x3d80749d	0.06272242
43	0xbe17af6f	-0.14813016
44	0x3cb3b6a3	0.021937674
45	0xbf2bbc48	-0.6708417
46	0xbf45cf37	-0.7726931
47	0xbe839a7b	-0.25703797
48	0xbd1b8bfe	-0.037975304
49	0x3ec7ae90	0.39000368
50	0xbeb59b81	-0.35470203
51	0xbed20199	-0.41016844
52	0xbe9369fb	-0.28791794
53	0xbebc0660	-0.36723614
54	0xbe19e071	-0.15027024
55	0xbf440115	-0.7656415
56	0xbd210401	-0.03931046
57	0xbeee9890	-0.4660077
58	0x3e20b305	0.1569329
59	0xbf28dce5	-0.6596206
60	0xbe79c1be	-0.24390313
61	0xbf15068b	-0.5821311
62	0xbed8b544	-0.42325795
63	0xbf9da1d4	-1.2315011
64	0xbe6d9709	-0.23202147
65	0xbee194a7	-0.44058725
66	0xbd861cf6	-0.065484926
67	0xbeb43ae7	-0.3520119
68	0xbf13bfaa	-0.5771433
69	0xbeda2f0a	-0.42614013
70	0xbc35e2d5	-0.011101444
71	0xbfa2c482	-1.271622
72	0xbe8e360c	-0.2777561
73	0xbe1336d2	-0.14376381
74	0xbeb3de34	-0.35130465
75	0xbebb1998	-0.36542964
76	0x3d216334	0.039401248
77	0x3da25b7c	0.079276055
78	0x3e85e2e2	0.2614966
79	0xbe0e59e6	-0.13901481
80	0xbeade3aa	-0.33962756
81	0xbe7d0dd5	-0.24712308
82	0x3ecc5f91	0.3991666
83	0xbf1d610d	-0.6147621
84	0xbf25f4d5	-0.6482671
85	0xbf17c8bd	-0.5929068
86	0xbe4b5462	-0.19856408
87	0x3d3316db	0.04372297
88	0xbf7651ce	-0.96218574
89	0xbec1a6e3	-0.37822637
90	0xbeb126df	-0.3459997
91	0x3db5c6db	0.08875819
92	0xbee0d2ef	-0.4391093
93	0x3d5b1fdd	0.053497184
94	0x3e045d4f	0.1292622
95	0xbeeb4e91	-0.4595838
96	0x3e6d74d9	0.23189105
97	0xbe3aed3a	-0.18254557
98	0xbe5c09a7	-0.21488057
99	0xbf8e91ee	-1.1138284
100	0x3f12b30b	0.5730445
101	0x3d928878	0.071549356
102	0xbee0e5dc	-0.4392537
103	0x3ed65dfd	0.41868582
104	0xbd80b0e0	-0.06283736
105	0xbeecb936	-0.46235055
106	0xbe9eb073	-0.30993995
107	0xbf0e27ab	-0.5552928
108	0xbd13bc48	-0.03606823
109	0xbec2987b	-0.38006958
110	0xbdbab671	-0.09116829
111	0x3eb2bdbe	0.34910387
112	0xbebbb338	-0.3666017
113	0xbeb21fb5	-0.34789816
114	0x3ed30ce6	0.41220778
115	0x3ec87063	0.39148244
116	0x3e9c4956	0.305247
117	0xbe9194e7	-0.28433916
118	0xbecde5ef	-0.40214488
119	0x3eb3d558	0.35123706
120	0xbf0bd0f5	-0.5461572
121	0x3eabaf88	0.33532357
122	0xbec39e6f	-0.38206813
123	0x3e9222d8	0.2854221
124	0x3f25b790	0.6473322
125	0x3eec6570	0.4617114
126	0x3d321c86	0.043484233
127	0xbe9ce5f9	-0.30644205
128	0x3dfbb29a	0.12289925
129	0xbec8bea8	-0.3920796
130	0xbbb19161	-0.005418942
131	0x3eb54155	0.35401407
132	0xbc974d17	-0.018469376
133	0xbe852b5d	-0.26009646
134	0x3f15802e	0.5839871
135	0xbea2441e	-0.31692594
136	0xbb146612	-0.0022643846
137	0xbcc98a16	-0.024601977
138	0xbe4b9e67	-0.19884644
139	0x3ecd8f88	0.40148568
140	0xbefe4991	-0.49665502
141	0xbd944023	-0.072387956
142	0x3ef7581b	0.48309407
143	0x3dd49f26	0.10381918
144	0xbdd5d692	-0.10441317
145	0x3f25d2e8	0.6477494
146	0xbe2c3d7f	-0.16820334
147	0x3e3ef37f	0.18647574
148	0x3e662211	0.22473933
149	0x3f035c11	0.5131236

sequential_1/dense_1/Cast/ReadVariableOp:0 f4 [50, 1]
0	0x3e16036b	0.14649741
1	0xbdf28845	-0.118423976
2	0xbdda532d	-0.10660396
3	0x3e91d296	0.28480977
4	0x3c3ad162	0.01140246
5	0xbe6927ba	-0.2276906
6	0xbc680530	-0.014161393
7	0x3c96fbaf	0.018430559
8	0xbdba4280	-0.09094715
9	0xbddca30d	-0.10773287
10	0xbe2b7fa8	-0.16747916
11	0x3ec88c59	0.39169577
12	0xbece83cb	-0.40334925
13	0xbeddd186	-0.43323916
14	0x3ddb2cc1	0.107018955
15	0x3eab293f	0.33429906
16	0x3d922763	0.07136419
17	0xbe3b2116	-0.1827434
18	0xbe481b4b	-0.19541661
19	0x3dd3d33e	0.103430256
20	0xbd4120ea	-0.04715053
21	0x3eda6aa3	0.42659482
22	0xbeaa2c1e	-0.33236784
23	0x3de692c6	0.112584636
24	0x3d7462a5	0.059664387
25	0x3df8726e	0.12131201
26	0xbc7fd427	-0.015614546
27	0xbe11e454	-0.14247257
28	0xbdbe483b	-0.092911206
29	0xbd8667a3	-0.06562736
30	0x3d65125c	0.055925712
31	0x3e47364b	0.19454305
32	0x3db39471	0.08768547
33	0xbd918fb8	-0.0710749
34	0x3d4d60e5	0.050141234
35	0x3d9162ae	0.070989
36	0x3c902982	0.017597917
37	0x3db400ca	0.08789213
38	0xbe3af9f3	-0.1825941
39	0x3dc15d76	0.094416544
40	0xbe621cb5	-0.22081263
41	0x3d1c92ab	0.03822581
42	0x3db9f0c9	0.09079129
43	0x3b9182cf	0.0044406424
44	0x3d9d2440	0.0767293
45	0x3c439c46	0.011939114
46	0xbd092685	-0.033484
47	0xbd81ecdf	-0.06344008
48	0x3e674e1f	0.22588395
49	0x3e594163	0.2121635
