models/LSTM_model_mae.onnx (onnx, 51710 bytes, 4 tensors)

sequential_4_1/lstm_1_1/lstm_cell_1/add_1/ReadVariableOp/resource:0 f4 [200]
000000 99 b2 b4 ba df 6d 3c bd fd 5b b5 bc 2e 42 03 bd
       -0.0013786136 -0.04600322 -0.02213859 -0.032045536
000010 0c 29 bf be 83 f4 cd be 5e 7b 3e be 4d 8c 68 3e
       -0.37336004 -0.4022561 -0.18601748 0.2270977
000020 b5 5a 9c 3e 84 3a 57 be b2 02 21 be b4 3e 01 be
       0.30537954 -0.21018416 -0.15723684 -0.12621576
000030 1e 4e 23 bd e0 96 44 3d d3 e3 2b 3f e1 22 cf 3d
       -0.03986942 0.047995448 0.6714451 0.101140745
000040 7e a3 40 3e 6b a1 41 3f 5e 9e 96 be 0b 7e 69 3e
       0.18812367 0.7563693 -0.294177 0.22801988
000050 64 1d 25 bf b3 cb c7 be 2e 50 2f 3e 47 82 fd bd
       -0.6449797 -0.39022598 0.1712043 -0.12378364
000060 c8 c0 c4 be ca b3 06 3e f0 d5 a4 be e0 5e 38 3e
       -0.3842833 0.13154522 -0.3219447 0.18004942
000070 18 50 0b 3e 7a 4a 3b 3d a0 64 b9 be 41 5b 8b 3e
       0.13604772 0.045725323 -0.36209583 0.2721806
000080 c9 77 09 bd 32 d1 35 3d 91 1e 99 3c d0 67 83 be
       -0.0335615 0.044388957 0.018691333 -0.2566514
000090 db e3 3c 3e fb 2a f3 bd 58 31 0c bf 6e 8b 7a be
       0.18446295 -0.11873432 -0.5476279 -0.2446725
0000a0 87 2e 05 bf 32 bd 7b be ca fd 06 bf d7 18 b2 3e
       -0.5202412 -0.24583891 -0.52731 0.34784576
0000b0 7f 3d 96 be 18 e5 0b be d8 57 69 3e a5 9e 99 bd
       -0.29343793 -0.13661611 0.22787416 -0.07500962
0000c0 09 6e 7d be 03 ff ca bd 02 34 60 3f bd 79 69 3f
       -0.24749006 -0.09911921 0.8757936 0.9120138
0000d0 95 c9 f6 3e 0d f6 13 3f 2d 3b 74 3f a7 29 3b 3f
       0.4820067 0.5779732 0.95402795 0.7311043
0000e0 5e 4b 4d 3f 7f 83 44 3f b8 f8 3a 3f 03 6d 88 3f
       0.80193126 0.7676315 0.73035765 1.0658268
0000f0 df ea 3b 3f ae c1 69 3f 1e b1 23 3f 52 11 85 3f
       0.7340526 0.91311157 0.63942134 1.0395911
000100 93 cf 07 3f 69 fd d6 3e b8 99 ad 3b 03 4d 9a 3e
       0.5305111 0.41990212 0.0052978657 0.3013688
000110 d4 4c 3f 3f ec 1a 05 3f 8b 03 65 3f 63 4d 7b 3e
       0.74726605 0.51994205 0.8945853 0.2454124
000120 d8 c9 3b 3f 50 a7 61 3f 3c 60 87 3f 77 83 4d 3f
       0.73354864 0.88145924 1.0576243 0.80278724
000130 e0 91 7b 3f 57 38 26 3f 2e 4e 7d 3f b0 19 6e 3f
       0.9826946 0.6492972 0.9894742 0.93007946
000140 3c 63 a5 3f ae fe 6c 3f 5a ca 81 3f ab 9f 1b 3f
       1.2920909 0.9257611 1.0139878 0.6079051
000150 9b 09 32 3f 32 82 81 3f dc 1f 54 3f ce ed 72 3f
       0.69545907 1.0117857 0.82861114 0.9489411
000160 4b ab 20 3f 1c b8 5e 3f f3 63 a9 3f 62 c6 1e 3f
       0.6276137 0.8699968 1.3233627 0.6202146
000170 90 bb 35 3f ac 13 ae 3f 3b 43 a5 3f f3 7c 64 3f
       0.7098932 1.3599753 1.2911142 0.8925316
000180 60 6c 89 3f d0 5e 45 3f b4 5a ef 3e 8b 23 5d 3f
       1.0736198 0.770978 0.46748888 0.8638236
000190 91 3a 51 3e 55 37 ad bd b8 15 ab bd f7 1a 25 3e
       0.20432498 -0.08457819 -0.08353752 0.16123568
0001a0 14 41 06 3d ce e8 ce 3b d8 74 d9 bd 21 84 9d be
       0.032776907 0.0063143736 -0.10617989 -0.3076487
0001b0 60 ba c9 be 40 3d 02 3b 04 c5 3e 3d af fe 04 be
       -0.39400005 0.0019872934 0.046574607 -0.12987779
0001c0 0f 39 1e bd f3 81 17 3e 8c 67 15 3d c8 de ae 3d
       -0.038628634 0.14795665 0.036475703 0.08538586
0001d0 69 84 c0 bb 21 f5 d0 3e fc 18 14 3e c2 96 1b 3e
       -0.0058751595 0.4081202 0.14462656 0.15194228
0001e0 ca 4f 0f bd 64 40 00 3e 74 f9 6b 3e 79 3b 9f bc
       -0.034988202 0.12524563 0.23044378 -0.019437538
0001f0 9a a9 df 3d 71 32 a4 bc 5f 2b af 3d 32 5c ae bd
       0.10921021 -0.020043584 0.08553194 -0.085136786
000200 13 ef 9f bc a9 ec 94 3e 7b 6a 40 3b 60 db 55 3e
       -0.01952318 0.29086807 0.0029360342 0.20884466
000210 d0 17 ad 3e cb d1 1d 3e 7e a8 48 bd 1c 29 28 bd
       0.3380723 0.15412061 -0.04898881 -0.04105483
000220 55 d3 83 3e 07 83 f0 3e ce d2 fd 3b 7f 00 1a be
       0.2574717 0.46974966 0.007746077 -0.15039252
000230 9c 74 b5 bc a0 70 20 be e1 4d b8 3c 41 f8 77 3d
       -0.02215033 -0.15667963 0.022498073 0.060539488
000240 68 49 ca 3e 9c 08 f9 bc d5 7b b4 bd e9 e0 e4 be
       0.3950913 -0.030399613 -0.088126816 -0.44702843
000250 52 41 6e 3e 58 10 a2 3a e4 cb 63 3d 98 ae bd 3e
       0.23267105 0.001236449 0.055614367 0.37047267
000260 18 d8 ae bc e5 cd 76 bd 3b ab f5 be 58 ef dc be
       -0.021343276 -0.06025495 -0.479822 -0.43151355
000270 cc 7a 8e be 19 24 28 3f 71 63 a0 3e b4 a1 a6 be
       -0.27828062 0.6568008 0.31325868 -0.32545245
000280 11 32 aa be da fb ce be a3 26 69 3e 52 08 80 3c
       -0.33241323 -0.40426522 0.22768645 0.015628967
000290 ee 97 3d 3f 63 82 55 3e f3 82 d1 3d 38 10 05 3f
       0.7405995 0.2085052 0.10230055 0.5197787
0002a0 32 7f 1b be b0 96 a9 3c dc 4c 24 bf d9 32 e1 be
       -0.1518524 0.020701736 -0.6417978 -0.43984106
0002b0 ed c2 9c 3c 49 19 35 be 13 90 c9 be 4e 6b 3b 3e
       0.019135917 -0.17685427 -0.39367732 0.18302652
0002c0 6b f1 c9 be 24 20 bd 3e 19 e6 1f 3e 90 b3 f9 bd
       -0.39442 0.36938584 0.15615119 -0.12192452
0002d0 fa 38 bf bd 75 5b 8b 3e f7 14 03 be 32 38 01 3e
       -0.09337039 0.27218214 -0.12800966 0.12619093
0002e0 8a 23 84 3d 1f 73 c4 be 82 84 41 3e 8c 33 9c bd
       0.06452091 -0.3836908 0.18898204 -0.07627019
0002f0 24 94 23 bf ba 76 56 be d9 c5 f5 be fe d9 7b be
       -0.6389792 -0.20943728 -0.48002508 -0.24594876
000300 5b f7 0f bf 82 b9 18 3d 1b b3 6a be b3 12 2c be
       -0.5623681 0.03728629 -0.22919886 -0.16804008
000310 ee c5 5c be bd 75 c6 3c 40 84 93 be e7 aa ee bd
       -0.21559879 0.024226064 -0.28811836 -0.11653691

sequential_4_1/lstm_1_1/lstm_cell_1/Cast_1/ReadVariableOp/resource:0 f4 [50, 200]
000000 c9 b7 11 bd 5b 12 80 bf d2 a8 fb be d9 39 c2 bf
       -0.03557566 -1.0005602 -0.49152237 -1.5173904
000010 ad 81 1b bf 96 e5 a7 3f e4 28 a7 bf 7c a2 2c c0
       -0.60744745 1.3116939 -1.3059354 -2.6974173
000020 a8 13 52 be b8 1d e4 3d c2 f4 80 be dc 1d 85 bf
       -0.20515311 0.11138481 -0.25186735 -1.0399737
000030 fa 13 29 3f fd 88 10 bc a1 c6 47 bf a0 bc c1 bf
       0.66046107 -0.008821723 -0.7803746 -1.5135689
000040 ee fe 31 bf 23 cf bb 3e 79 ce 5f bf 24 d7 e6 3d
       -0.69529617 0.3668147 -0.8742443 0.112715036
000050 45 67 4f 3e d6 a3 24 3f 02 bf 6d be d7 dd 6a be
       0.20254238 0.64312494 -0.23217395 -0.22936188
000060 30 e4 21 bf ab 07 0c bf 01 05 02 bf c3 ec 19 be
       -0.6323881 -0.546992 -0.50788885 -0.15031724
000070 2e bc de be ed b3 28 bd b0 51 b1 be 20 d0 99 bf
       -0.43502945 -0.041187216 -0.34632635 -1.201664
000080 67 11 0b 3f e6 da c0 bf 2e b3 df 3e 0a ba 79 3f
       0.5432343 -1.5066803 0.4369139 0.975495
000090 3b 65 da 3f fc 50 0e bd 79 7d 6f 3e 6f 69 58 bf
       1.7062143 -0.0347452 0.23387708 -0.8453588
0000a0 7c 41 27 bd 06 01 c7 bd 85 25 c5 3b ac 7c d3 be
       -0.040833935 -0.09716992 0.0060164356 -0.41306055
0000b0 6c a5 17 bf ae 05 ab be 6c ed ec be c3 29 8f bf
       -0.5923679 -0.3340277 -0.4627489 -1.118462
0000c0 78 c6 42 bf 2c b5 94 bd 18 10 01 3f 5d 0d cc bc
       -0.7608409 -0.07261118 0.5041518 -0.024908716
0000d0 86 e8 72 be 2d c4 14 bf be f3 01 3e db 53 ab 3f
       -0.23721513 -0.5811184 0.12690637 1.3384966
0000e0 cc 5f 36 3d 43 e3 8f bc f7 a5 38 3f 8d 75 ee be
       0.044524953 -0.017564422 0.7212824 -0.4657406
0000f0 b1 14 b5 3d 72 74 4c 3f 6e cc cc bf fd 0d 74 bd
       0.08841837 0.7986518 -1.5999887 -0.059583653
000100 dc f8 20 3f 8b ec 18 3b 2c c2 ce 3e db 8d ba 3d
       0.6287973 0.002333435 0.40382516 0.09109088
000110 a7 d0 54 3a 28 4a 01 3f 7b 21 9c bd 0d 99 2c 3d
       0.000811825 0.5050378 -0.076235734 0.042138148
000120 18 ae bc 3e 36 ef 0f 3e 31 ab 0f be 7c 53 26 3f
       0.36851573 0.14056095 -0.14030148 0.6497114
000130 8b ac 9f bf 15 88 f9 3e 28 20 b3 39 0e 92 ca be
       -1.2474531 0.48736635 0.000341655 -0.39564556
000140 4a 22 68 be bb 8f da be 62 f4 01 be af 61 58 be
       -0.2266933 -0.42687783 -0.12690881 -0.21131013
000150 4e 83 6e 3f 8a 89 02 3f c4 e5 64 bd 7c fd 08 bf
       0.93169105 0.5099112 -0.055883184 -0.53511786
000160 70 64 87 3e 43 e2 79 3e 26 1a f0 3d 8b a3 bf be
       0.26443815 0.24402718 0.117237374 -0.3742946
000170 10 db 19 3d e3 38 04 bf ec 6d 37 3d 57 f4 1a bf
       0.03756243 -0.516493 0.044782564 -0.60529083
000180 5a 3f a1 3e 58 96 5a bf 14 93 dd be 30 19 ef bc
       0.31493646 -0.85385656 -0.43276274 -0.029186815
000190 aa bd 7c 3e be 7d bb 3d 2b a9 88 bd 74 94 f3 3e
       0.24681726 0.09154843 -0.06672891 0.47574198
0001a0 91 fd 8f 3e 94 bc 69 bf cc 76 62 3c 37 07 59 3c
       0.28123143 -0.9130337 0.013822269 0.013246349
0001b0 5d 32 c1 bd 8c 73 f0 bd e3 09 40 be ee e2 43 3f
       -0.09433434 -0.11740789 -0.18753771 0.7651814
0001c0 a0 f5 bc 3d 7e 87 1e bd 83 30 99 3e 88 52 a1 be
       0.09226537 -0.038703434 0.29919824 -0.3150828
0001d0 62 31 ed 3d 65 b0 17 be 3a 65 9e 3e 61 76 d2 be
       0.11581685 -0.14813383 0.30936605 -0.4110594
0001e0 cf 3c c1 3e a7 0e 2c 3e 72 a5 d1 be a2 63 88 be
       0.37741706 0.16802464 -0.40946537 -0.26638514
0001f0 90 ea ae 3d 7f 25 95 3d c1 64 34 bf b1 bc d6 3d
       0.08540833 0.072825424 -0.7046624 0.10485209
000200 19 a2 0e 3f 16 ac 35 3d 93 72 33 be df f4 77 be
       0.5571609 0.044353567 -0.17524175 -0.24214505
000210 58 35 4e be 45 27 cb 3d 5d 32 eb be e1 1e 2f 3d
       -0.20137537 0.099195994 -0.45936862 0.042754058
000220 da 1f f5 3e 33 d9 ce 3e a3 73 11 3d 2a 5b 82 3d
       0.47875863 0.40400085 0.03551067 0.063650444
000230 f1 a7 11 3c ff 45 17 be 08 2c 16 3f 2c 91 fb be
       0.008890138 -0.14772795 0.58660936 -0.49134195
000240 c1 ee ea 3e 26 66 eb 3e 55 86 21 be 15 ea ac be
       0.4588528 0.4597637 -0.157739 -0.3377234
000250 bc 1c 3d 3e 19 b0 d0 bd 54 72 47 bf 44 ed 3f bf
       0.18467993 -0.10189838 -0.77908826 -0.74971414
000260 66 0f 03 bf 97 0d 96 bf 30 3f dd be 43 83 b3 3f
       -0.5119537 -1.1722897 -0.4321227 1.4024433
000270 14 51 68 bf f4 36 14 c0 fb 60 e6 bd c1 a7 94 3e
       -0.90748715 -2.315854 -0.11248966 0.29034236
000280 7f a4 fc be 50 38 34 be 2c f1 7c bf 59 6c 7f bc
       -0.4934425 -0.17599607 -0.988055 -0.015589797
000290 14 f1 4b bf 9e 15 ec bf 6b 46 11 bf b6 ba 81 bc
       -0.7966473 -1.8444097 -0.56748074 -0.015836101
0002a0 dd d7 69 bf 95 58 c2 3d e0 a9 a9 3e 7a 16 1c 3f
       -0.91345006 0.09489552 0.33137417 0.60971797
0002b0 5f e5 3a 3d ca 86 e5 be 32 de 80 bf ba 2f f3 be
       0.0456289 -0.44829398 -1.0067809 -0.4749735
0002c0 5b e9 6a bf 1f 82 21 3e 20 c2 30 3d 07 9c 5a 3e
       -0.9176232 0.15772294 0.043153882 0.21348582
0002d0 ff ee 08 bf 00 23 9e be 4d ec 3e 3f a2 2c b8 bf
       -0.5348968 -0.30886078 0.74579316 -1.4388621
0002e0 ea 81 b9 3e 05 96 42 3f c4 d9 5c 3f 87 98 8d 3e
       0.3623193 0.7601016 0.86269784 0.27655432
0002f0 d4 03 02 3f 73 7e 94 bf d5 e5 1b be e7 f8 e1 39
       0.5078709 -1.1601089 -0.15224393 0.0004310079
000300 75 21 26 3e be 25 e7 3e 0b b6 14 bf 3a 86 0e 3e
       0.162237 0.45145983 -0.58090276 0.13918391
000310 2c e0 d4 be 02 53 74 bf 63 ac a5 be 6d c1 cd bd
       -0.4157728 -0.9543916 -0.32358083 -0.10046659
000320 48 c2 11 bf 71 ea fe be f6 38 8e be f2 35 41 be
       -0.56937075 -0.4978824 -0.27777833 -0.18868235
000330 86 ec 70 bf 61 4c c9 bd d0 40 fe be 57 20 13 3f
       -0.94110906 -0.09829021 -0.49658823 0.5747122
000340 b3 71 e3 be 7f 6a 35 be 55 a8 10 bf 17 04 ab 3e
       -0.44422683 -0.17716406 -0.56506854 0.33401558
000350 ae c1 1d bf a5 fc 7b 3e 2e 0c 57 3e f9 26 c6 3d
       -0.61623657 0.24608095 0.2100074 0.09675402
000360 1e 01 80 bf bb 08 11 3f 87 07 38 bf dc d6 15 be
       -1.0000341 0.56653947 -0.71886486 -0.14632744
000370 3c 69 24 bf 05 b5 07 bf 42 61 1d 3d 10 33 00 bf
       -0.64223075 -0.5301059 0.03842283 -0.50077915
000380 e4 03 a2 bd a8 fa ba bd 0b 6b db be 43 86 02 bf
       -0.07910898 -0.0912984 -0.42855105 -0.5098612
000390 58 74 7d 3e 4a d5 35 3e 97 db 6d be 91 05 8c be
       0.24751413 0.17757145 -0.23228298 -0.27347997
0003a0 d1 bd 50 3e 01 03 ca be 17 cb 0a bf e8 04 20 bf
       0.20384909 -0.39455417 -0.5421614 -0.62507486
0003b0 17 75 36 bf 05 3e 14 bf c6 1d 50 bf d4 71 d1 be
       -0.71272415 -0.57907134 -0.8129543 -0.40907156
0003c0 c5 e3 e8 be 3a 0a b2 be ec be 77 bf 89 51 28 3f
       -0.45486274 -0.34773427 -0.967757 0.6574941
0003d0 19 29 50 bf d5 76 cd be 05 ab 55 be a0 d0 5d be
       -0.8131271 -0.40129724 -0.2086602 -0.21661615
0003e0 24 ba 38 3e 3a 4b ca 3d 48 e8 0b 3e 58 31 3c 3e
       0.18039757 0.098776296 0.13662827 0.18378198
0003f0 11 e9 e1 be 04 c2 23 be 39 1a 02 be 4e 85 5c bd
       -0.44123128 -0.1599198 -0.12705316 -0.053838067

sequential_4_1/lstm_1_1/lstm_cell_1/Cast/ReadVariableOp/resource:0 f4 [1, 200]
000000 25 5d 1f be b3 81 d4 3e 4d 4b b1 3e 12 48 49 3f
       -0.15562876 0.41505203 0.34627762 0.78625596
000010 0e 39 0b be 28 c2 02 bf ab 4a b9 be f1 36 86 3e
       -0.13595983 -0.5107751 -0.3618978 0.26213792
000020 bd a6 0b be 9a a2 81 be d0 e7 cc 3e 91 dd 80 be
       -0.13637824 -0.25319368 0.4002061 -0.25169042
000030 a1 6f 19 3f a5 60 71 3d 0b 05 11 3f 5c e9 64 3e
       0.5993596 0.058930058 0.5664832 0.22354645
000040 eb e9 14 be 1b 6f b4 3f dc 89 a7 3e dd 2e 05 be
       -0.14542358 1.4096407 0.32722366 -0.13006158
000050 db 5c 4a bf e3 1d f1 bd 43 a7 07 bf 66 46 b8 3e
       -0.79047936 -0.117732786 -0.52989596 0.3599121
000060 40 b0 9b 3d ab 2d 86 be 2a 32 f7 be 5e fc 19 bf
       0.076019764 -0.26206717 -0.4828046 -0.60150707
000070 7f 9c ed bc 4c f6 07 bf 00 cf 4c bd 6c 55 ed 3e
       -0.029005287 -0.53110194 -0.050002098 0.46354234
000080 48 f6 fd be 68 22 1b 3f 8d 7e 4b bf 8a 45 c1 bc
       -0.4960196 0.60599375 -0.79489976 -0.02359273
000090 97 0b e1 be f3 85 c5 be 34 30 03 bf 4e 12 2a bd
       -0.43954155 -0.38578758 -0.5124543 -0.041521363
0000a0 de 7b 98 be 96 db 9d 3d f8 5b 1e bf ac c3 30 be
       -0.29782003 0.07707898 -0.61859083 -0.17262143
0000b0 8a b1 44 bf 07 24 17 bf 28 2f 55 3e 87 b9 21 be
       -0.76833403 -0.5903935 0.2081877 -0.1579343
0000c0 03 55 c6 be 85 a1 c7 3d d2 bf 21 3e 31 8b 49 3e
       -0.38736734 0.09747604 0.1579583 0.19682004
0000d0 d3 4e eb bd 37 57 0e 3d ef de 8b 3e f0 8c 47 be
       -0.11489644 0.034751143 0.27318522 -0.19487357
0000e0 58 3d de be 06 e7 a9 bd 13 d5 35 be fc eb 93 be
       -0.43406177 -0.08296017 -0.17757063 -0.2889098
0000f0 f0 b1 9d 3e 7c 3a da be 1a b6 b0 be f0 e6 58 3e
       0.30799818 -0.42622745 -0.34513932 0.21181846
000100 f7 06 f9 bd 7b 7d e2 3d 98 c3 f0 be a8 b1 20 3e
       -0.121595316 0.1105909 -0.47024226 0.1569277
000110 9c 54 a9 3e 26 be 8a bf 10 e9 b7 3d f2 a3 07 bf
       0.33072364 -1.0839279 0.0898 -0.52984536
000120 0d 95 1a bf 3a f3 b1 3e 54 cc 06 3f 02 d4 f7 be
       -0.60383683 0.3475588 0.5265553 -0.48403937
000130 23 4d 2f 3e 40 70 10 bf 6a 20 2b 3e 62 7a 42 bf
       0.17119269 -0.5642128 0.16711584 -0.7596799
000140 60 ac 09 3d 35 38 02 bf d1 e5 8f bd 41 ed 3d 3e
       0.033611655 -0.50867015 -0.07026256 0.18547536
000150 ee c3 54 bf ca dd 59 3e 0f 3b fa be 90 40 f5 bd
       -0.83111465 0.21276012 -0.48873183 -0.11975205
000160 c1 dc dc bd c0 ba 92 be 89 c2 0c 3f 41 09 a5 be
       -0.10784293 -0.28658104 0.5498434 -0.32233623
000170 92 48 36 3d 16 45 ea be 8c 6e 97 3e dd 7f 47 bf
       0.044502802 -0.45755833 0.29576528 -0.7792948
000180 93 06 b7 3e b7 c8 b1 be fb 12 0a bf 0b 7a 4b be
       0.35747203 -0.34723446 -0.5393521 -0.19870774
000190 8e eb 03 bf 46 eb 14 3f 74 3c ef 3e 84 86 0a bf
       -0.515313 0.581715 0.4672581 -0.54111505
0001a0 86 72 b5 3e 74 43 68 be 4b c0 3a 3e 06 9f 30 3f
       0.35438937 -0.22681981 0.18237416 0.6899265
0001b0 25 fb 41 3f f1 b5 1c be 25 37 00 bf 03 0b 00 be
       0.7577384 -0.1530378 -0.50084144 -0.125042
0001c0 da 65 dc 3e 4f af de be fe 3a 4b 3f 19 14 0c bf
       0.43046457 -0.43493125 0.7938689 -0.54718167
0001d0 08 b5 b3 3e e6 44 a7 3c 1c 17 f7 be 6f 96 9d be
       0.35099053 0.020418596 -0.4825982 -0.30778834
0001e0 7b 61 83 3e bb 90 b0 3e c5 8d d9 be 15 a7 d8 be
       0.2566031 0.3448542 -0.42490974 -0.42314973
0001f0 09 4b d7 be a8 67 85 be 2f 23 a4 be a2 eb 51 3f
       -0.42049435 -0.26055646 -0.32058093 0.8200017
000200 59 7a c7 be f3 f4 04 be 51 f4 69 3e ff ce 44 bf
       -0.3896053 -0.12984066 0.22847106 -0.7687835
000210 67 68 d2 bd 93 16 1d bf b6 86 e2 be b1 1c e9 3d
       -0.102738194 -0.6136257 -0.442434 0.113824256
000220 a5 a7 ce be e4 33 b2 be 86 8a 3c 3e dc 48 d2 3e
       -0.40362278 -0.34805214 0.18412217 0.41071212
000230 65 8e 90 be 55 b4 88 3e 9c 15 71 3e 27 86 21 3e
       -0.28233638 0.26700082 0.235434 0.15773831
000240 fb 67 86 be dd a8 3e 3d 05 c3 f6 3e 07 17 36 3e
       -0.26251206 0.04654776 0.48195663 0.17782222
000250 34 36 0d be bd e4 c6 3e f4 9b 16 be ee 47 b2 3e
       -0.13790208 0.38846388 -0.14707929 0.34820503
000260 14 15 c5 3e 57 94 7d 3f 67 6e d8 3e 3a 9d 0c bf
       0.38492644 0.99054474 0.4227173 -0.5492741
000270 ee 98 b6 bf 33 eb 10 3f d1 f2 13 be b6 cf 8f bf
       -1.426542 0.56608886 -0.14448096 -1.1235263
000280 ac 8c 18 3f 2a 21 44 bf 95 3b 02 3f 3d 81 c5 3e
       0.5958965 -0.76613104 0.50872165 0.38575163
000290 b7 6d 0f 3f fe 38 8e 3e c0 5c f9 3e 01 45 bc 3f
       0.56026787 0.27777857 0.48703575 1.4708558
0002a0 75 3e be 3e 8e ad c0 bf b8 f1 04 bf e9 8b bc bd
       0.37157026 -1.5052965 -0.51931334 -0.09206373
0002b0 b2 ac 9b bf 04 67 f4 3e 7d 70 39 be 60 b4 05 bf
       -1.2162077 0.47734845 -0.18109317 -0.52228355
0002c0 3c 00 c5 be 1a 53 03 bf 96 ad 95 3e f9 ed 8a bf
       -0.3847674 -0.5129868 0.29233998 -1.0853873
0002d0 9d 49 8f be b2 da 81 be 29 76 53 3e bb c2 7b 3f
       -0.2798585 -0.25362164 0.20650543 0.9834401
0002e0 36 ed 67 bf 71 21 62 be b4 cc 21 bf bc 14 8e 3e
       -0.9059633 -0.2208307 -0.6320298 0.27750194
0002f0 23 0e b7 be a6 ca 02 bf 7c 40 94 be 6b 6a ef 3e
       -0.35752973 -0.51090467 -0.28955448 0.46760878
000300 16 db 3b be 36 80 3a c0 81 11 c3 3e e5 0e 7e bf
       -0.18345293 -2.9140754 0.38099292 -0.9924148
000310 dc 32 ed be f9 92 89 be 92 28 80 bf a2 c6 db 3d
       -0.46327865 -0.26869944 -1.0012381 0.107312456

sequential_4_1/dense_4_1/Cast/ReadVariableOp:0 f4 [50, 1]
000000 c2 4e 6b be ab bd e0 3e 23 29 45 3e 70 c6 28 be
       -0.22979262 0.43894705 0.19253974 -0.16481948
000010 8d 7b 85 3e 31 9b 3d be f6 b4 38 3e 45 d9 ad 3e
       0.26070824 -0.18516232 0.18037781 0.33954826
000020 d6 66 9e 3e bc fb 62 bd ae 77 c1 be b8 eb 09 3e
       0.30937833 -0.055415854 -0.3778662 0.13468826
000030 27 e9 74 3e ad 1a 61 be d5 3f 82 3f 41 2c ba be
       0.23917066 -0.21982832 1.017573 -0.36361888
000040 c4 da 91 3e 29 6d e4 3d 6a 3e 75 be ff 78 ae be
       0.28487217 0.11153633 -0.2394959 -0.34076688
000050 3c 7c 4b 3e 30 d5 93 3e 12 0c 08 be 88 bc 8b be
       0.1987161 0.28873587 -0.13285854 -0.27292275
000060 36 80 97 be 20 d3 0e 3e ef ea b1 bd f7 cd 12 3f
       -0.29590005 0.13947725 -0.08687388 0.5734553
000070 16 18 89 be b4 dc 1f 3e c0 4e c3 3d 2c 4d 18 bf
       -0.2677619 0.15611535 0.09536505 -0.59492755
000080 ba c7 5d 3e 26 e8 d4 be 20 73 92 be b5 75 f2 3d
       0.21658221 -0.41583365 -0.28603458 0.11838857
000090 40 dd 42 be 79 bc 1d 3e 22 1e 83 3e 83 29 85 3e
       -0.19029713 0.15403928 0.25608927 0.26008233
0000a0 89 af ad be 0b d6 10 be 2c 04 77 3e d3 6a bf be
       -0.33922985 -0.14144151 0.24122685 -0.37386188
0000b0 7a 00 1e 3e 4f 91 f9 3b e1 63 8b 3e db d4 c5 bd
       0.1542987 0.007616199 0.2722464 -0.096597396
0000c0 d7 0e 35 be 07 6d 19 3e
       -0.17681442 0.14982997
