models/LSTM_model_mse.onnx (onnx, 51282 bytes, 4 tensors)

sequential_1_1/lstm_1/lstm_cell_1/add_1/ReadVariableOp/resource:0 f4 [200]
000000 ae 6c 08 be ca 53 7a bc a5 5c 09 bf a1 ef ed 3d
       -0.13322708 -0.015278766 -0.5365699 0.11617971
000010 5b 99 22 3e 04 0b 05 3f 6a b6 f4 bc ea d9 31 3e
       0.15878813 0.51969934 -0.029872138 0.17368284
000020 11 8a 1b bc ed 2c 48 bb b7 0e 2b 3e 78 c7 25 3e
       -0.009493367 -0.0030544356 0.16704832 0.16189373
000030 4f 46 36 be ad 02 b8 3e d3 c0 fc bd 4c 29 cc 3e
       -0.17800258 0.3593954 -0.12341466 0.39875257
000040 bf 9f 64 be bb 70 79 bd bd dd d8 3d 0c e4 2c 3e
       -0.22326563 -0.060898524 0.10589168 0.16883868
000050 ef 35 73 bc 3f d9 c2 be f2 a9 5f bf 1c 76 52 3c
       -0.014844402 -0.3805637 -0.8736869 0.012845542
000060 01 6d e7 be a8 07 54 3f 5f e3 78 3d 83 e6 f0 3c
       -0.4520035 0.8282418 0.060763713 0.029406792
000070 68 7a 99 3e 0e cb ea bd 16 2c 47 be 44 fd 99 bc
       0.299762 -0.11464511 -0.19450411 -0.018797524
000080 a0 7e a3 3d c1 a1 c9 3d 3f 6b 4b bd 5a d9 10 3f
       0.07983136 0.09845305 -0.049662825 0.5658165
000090 4e e0 65 3e 3c 4d 9d be 18 44 7d bd 8d 78 6f 3e
       0.22448847 -0.30722988 -0.061832517 0.2338583
0000a0 a2 5e ea bd 6a 09 19 3d 85 9d 41 be 31 49 18 3e
       -0.11443831 0.037362494 -0.18907745 0.1487167
0000b0 94 76 06 bf cb 48 db 3b f9 22 d1 be ab c6 4b 3e
       -0.52524686 0.006692027 -0.40846995 0.19900005
0000c0 00 0b c0 bd 12 c6 22 3e 8e a5 81 3f 61 40 cf 3e
       -0.09377098 0.1589587 1.0128648 0.40478805
0000d0 43 18 26 3f 94 13 79 3f b5 9a 5a 3f fb e2 84 3f
       0.6488077 0.972955 0.85392314 1.0381769
0000e0 4e 99 61 3f 62 96 31 3f e8 91 1a 3f ce 62 79 3f
       0.8812455 0.6937009 0.60378885 0.9741639
0000f0 a1 3c 8c 3f df 00 59 3f 50 58 49 3f 39 c3 8a 3f
       1.0956002 0.84766954 0.7865038 1.0840827
000100 08 09 44 3f d1 bd 89 3f 91 b9 98 3f e9 25 81 3f
       0.7657628 1.0761052 1.193163 1.0089694
000110 26 a1 d3 3e 8b da 7a 3f b1 78 81 3f 99 c7 82 3f
       0.41333884 0.9798972 1.0114957 1.0217162
000120 5f 26 34 3f cd 3c 33 3f f8 a5 60 3f f2 50 45 3f
       0.7037105 0.7001465 0.8775325 0.7707664
000130 ef d6 30 3f a1 16 91 3f 8b 0e b3 3f 56 ee 70 3f
       0.6907796 1.1335031 1.3988813 0.9411367
000140 22 b9 6a 3f c2 0d 91 3f 98 7a 6c 3f c3 b0 8c 3f
       0.9168874 1.1332324 0.92374563 1.0991443
000150 51 47 3c 3f 7a 0b 6f 3f 49 60 9b 3f 8a 95 82 3f
       0.7354632 0.93376887 1.2138759 1.0201886
000160 88 66 2b 3f f4 a4 19 3f 7f fa 9c 3f be 21 7a 3f
       0.66953325 0.60017323 1.2263945 0.97707736
000170 e5 49 82 3f d5 16 21 3f 9e 3e 21 3f 72 8b 08 3f
       1.0178801 0.62925464 0.6298617 0.53337777
000180 e9 4a 70 3f 62 56 8f 3f 5f 9b 2f 3f 84 ca 7d 3f
       0.93864304 1.1198237 0.6859645 0.9913714
000190 ae f8 3d be 58 61 0d 3e 33 a8 04 be a8 18 af 3d
       -0.18551895 0.13806665 -0.12954788 0.08549625
0001a0 05 42 64 3e ce 10 c1 bd 8d 27 73 3e 9b 86 d6 bc
       0.2229081 -0.09427033 0.23745556 -0.026187232
0001b0 89 34 9a bd 35 31 7d 3e 4a b4 15 3e 88 a5 0d bf
       -0.075295515 0.24725802 0.14619556 -0.55330706
0001c0 9a e9 a5 be e5 98 c7 3e d6 3f 93 be 14 1d 21 be
       -0.32404786 0.38983837 -0.2875964 -0.15733749
0001d0 6c e8 e9 3c e6 17 74 bd 52 e9 1b 3d 55 c9 6c 3d
       0.02855321 -0.059593104 0.03806431 0.057809193
0001e0 12 98 56 bd 34 e9 9c 3d f5 40 1e 3e 7b 76 bd 3e
       -0.05239112 0.076616675 0.15454467 0.37004456
0001f0 9d 32 a7 bd 87 65 f5 3e a9 88 55 3e da 87 18 3d
       -0.081639506 0.47929022 0.20852913 0.037238933
000200 fd 6c 3d 3e 90 00 bc bc c2 a6 89 3d ab 1e 27 bd
       0.18498607 -0.022949487 0.0672126 -0.04080073
000210 36 f9 41 be 8f 08 04 3b 69 b7 06 3e 0c 89 b5 3e
       -0.18942723 0.0020146703 0.13155903 0.3545612
000220 1c 71 45 be d7 d1 2f 3b d8 81 ba 3d 15 91 60 3e
       -0.19281429 0.0026827955 0.09106797 0.21930344
000230 3e 75 f8 3d c7 65 35 3e 94 56 11 be 0f ea 7d be
       0.12131737 0.17714606 -0.14193183 -0.24796318
000240 f3 ef 1e 3e 11 c2 b3 3d 4a dd 3c be 9f 99 9a be
       0.15521221 0.087772496 -0.1844379 -0.3019533
000250 6f 82 10 be 10 fe bf 3e 4a 50 92 be b7 8c df 3d
       -0.14112256 0.37498522 -0.2857688 0.10915511
000260 db 5c 02 bf 25 73 64 3c eb 7f c6 3d ab 73 0a be
       -0.50922936 0.013943468 0.09692367 -0.13520686
000270 20 f6 fa bc 37 9d a0 bd 40 13 2f 3d e1 2a be bd
       -0.03063494 -0.07842486 0.042742968 -0.09285522
000280 1a e7 df bd 28 64 c7 3d 59 e8 a3 be 16 b3 cb 3e
       -0.10932751 0.097359 -0.32013205 0.3978507
000290 5d 1f 06 be 48 7d c9 bd 8f ae 89 be ad a4 98 be
       -0.13097902 -0.098383486 -0.2689099 -0.29813138
0002a0 93 f2 19 3e ca 84 04 3e 9c 60 bc 3c 10 06 ba be
       0.15033941 0.1294128 0.022995286 -0.3633275
0002b0 04 70 67 bf 4e 76 49 be 11 f8 f4 be 3c e5 42 3f
       -0.904053 -0.19674036 -0.4784551 0.76131034
0002c0 05 5d 3a bc 66 8c 93 be 65 01 1c be 9f c9 3a be
       -0.011374717 -0.28818053 -0.15234907 -0.18240975
0002d0 8a 0c 9b bd e8 bb cb be 98 00 3d bd 74 d3 48 bd
       -0.07570751 -0.397918 -0.046143144 -0.049029782
0002e0 a6 8f 92 bd 6e 79 2d 3e 3d 07 33 be e1 9b 6e be
       -0.07156305 0.16940853 -0.1748323 -0.2330165
0002f0 01 d7 7b bd 10 f9 89 3e ff fe 82 be 3c 28 40 3d
       -0.06148434 0.26947832 -0.25585172 0.04691337
000300 0a 57 6d be 32 4e db 3d 51 a2 0c bf aa 08 f6 bb
       -0.23177734 0.10708274 -0.54935175 -0.007508357
000310 bc 7a cf be f0 0e 20 be e8 ce 17 be 7f 14 02 3f
       -0.40523326 -0.15630698 -0.14825022 0.50812525

sequential_1_1/lstm_1/lstm_cell_1/Cast_1/ReadVariableOp/resource:0 f4 [50, 200]
000000 a3 f8 69 3e 96 b3 14 3e 8b 3c 0c 3f 94 97 b8 3d
       0.22848754 0.14521632 0.5477988 0.09013286
000010 50 0d 8e 3d ba 25 53 bf a4 21 b0 3e 1f 74 81 be
       0.06936133 -0.8247944 0.34400666 -0.25283906
000020 04 f6 9f bb d2 cf ad 3e 58 da 52 be a0 23 89 3e
       -0.0048816223 0.33947617 -0.20591104 0.26784992
000030 b9 7a c9 3e d7 6c f5 3e e3 cb 0b 3e 5f 39 2f be
       0.39351442 0.479346 0.13651995 -0.17111729
000040 a5 65 6b 3e da 57 54 3d a2 17 3f bf e2 aa c0 bf
       0.22987993 0.051841594 -0.74645436 -1.5052149
000050 c4 df 15 3e a8 b5 d7 3e e3 fd 0f 3f 8c 6d 8f 3d
       0.14636141 0.4213078 0.56246775 0.07003316
000060 a3 cf ee 3e ac a5 f9 be 94 08 cd be b3 e3 9e be
       0.4664279 -0.4875921 -0.40045607 -0.31033096
000070 59 cb f7 bc 7b f0 08 3e 5a 9e f8 3d 36 d3 6e bd
       -0.03024833 0.13372986 0.12139578 -0.058306895
000080 e7 58 b8 be a0 d4 26 be 20 ee 51 bf 6a 66 1d bf
       -0.36005327 -0.16292048 -0.82003975 -0.61484396
000090 bb cf 4b 3d 6a f3 11 3d 73 4d c4 3c dc 42 62 3e
       0.049758654 0.03563253 0.023962712 0.22095817
0000a0 c1 63 4e 3e 28 cf 11 bd 5c df de 3e 83 15 fd 3d
       0.2015524 -0.03559795 0.43529785 0.12357619
0000b0 03 5d be 3e 5e 06 13 3e 0a 8f 36 3f 17 03 4c be
       0.37180337 0.14357898 0.7131201 -0.19923054
0000c0 83 e8 9f 3e f9 d6 bb 3e 47 64 d7 3d ad db 74 3e
       0.3123208 0.3668745 0.10517173 0.23911925
0000d0 3b e6 ad 3e 09 f1 65 3e 3a 7f bd 3e 09 2a 95 be
       0.33964714 0.22455229 0.3701113 -0.29133633
0000e0 e1 a4 96 3e 53 12 48 3e 39 02 00 3f b1 33 6a 3d
       0.29422668 0.1953824 0.5000339 0.057178203
0000f0 12 95 a4 bc 27 86 ad 3e 3e a1 99 3e 1a 40 d0 3d
       -0.020090614 0.33891413 0.3000583 0.101684764
000100 07 7b 40 3e 97 5b 19 be 41 e4 37 bd df fc d7 3c
       0.18796931 -0.14976345 -0.044895414 0.026365696
000110 33 21 4b 3f a8 68 03 be 71 d6 15 3d a9 34 54 3d
       0.79347533 -0.12832892 0.03658146 0.051808033
000120 75 ea 4b 3e 97 08 ce 3e 76 0a 3c 3e 4a 44 20 bc
       0.19913657 0.4024093 0.18363366 -0.009781906
000130 37 df 66 bc a3 ec 80 bd f4 51 91 be 78 3c a6 3e
       -0.0140913045 -0.06295135 -0.28382838 0.3246801
000140 38 1c 17 bd fa 60 c5 ba 93 df 3d 3e 0c 6b ce bc
       -0.036892146 -0.0015058808 0.18542318 -0.025197528
000150 01 39 5e 39 9d f6 cf bd 7d fa 3d be c2 e9 0b be
       0.00021192805 -0.101544596 -0.18552585 -0.1366339
000160 f2 e3 8d 3e 43 2c d5 3e 0f c4 64 be 24 59 32 3d
       0.2771297 0.41635332 -0.22340415 0.043542042
000170 2b 71 e8 3d af c4 c7 3e 3f f1 81 3e 7c 6c b6 3e
       0.1134971 0.39017245 0.2537937 0.35629642
000180 9b ff 8c 3e 7b cf 58 be e9 7a 4a 3e 72 fe 97 bc
       0.27538761 -0.21172898 0.19773449 -0.018553946
000190 2a cc 93 3c 83 c2 20 3e 77 61 73 bc 79 53 6a be
       0.018041689 0.156992 -0.01485478 -0.22883405
0001a0 fb 38 47 be 96 03 b2 be 75 95 3a be 94 f5 1d be
       -0.1945533 -0.3476836 -0.18221076 -0.15425712
0001b0 e0 7f 55 3d 70 be 6b 3d 1f ec b8 be 89 40 2d bd
       0.052123904 0.057554662 -0.36117646 -0.042297874
0001c0 cc 4c b9 3d b9 82 c0 bd 61 d1 18 3e 56 0e 68 3d
       0.09047851 -0.09399933 0.14923622 0.056654297
0001d0 89 b7 8d bd 11 ae 2f 3d 58 83 89 3d 28 37 81 be
       -0.06919772 0.042890612 0.06714505 -0.25237393
0001e0 99 61 d8 3d 3b ff f4 bd eb f7 01 bd b4 08 d3 3d
       0.1056549 -0.11962744 -0.031730574 0.10304394
0001f0 fe b9 07 3d 6a 8c 10 bd d9 5d 1f be df f2 d7 be
       0.03313636 -0.03529016 -0.15563144 -0.42177483
000200 f2 24 cc bd 5d af 9d bd 13 9a 65 3d 2e 80 84 bd
       -0.09967984 -0.076994635 0.05605514 -0.06469761
000210 1f f7 d4 3d a6 8b ac bc 3f 7e 92 3d 9d eb b0 bb
       0.10398697 -0.021062683 0.07152986 -0.005399181
000220 59 9e 29 3f e6 2a 2f 3b 9a d8 0c 3e 73 ad 67 be
       0.66257244 0.002672845 0.13754502 -0.2262476
000230 f1 12 ec bd 95 0f b6 be f7 c8 7c bd 13 d4 10 3e
       -0.1152705 -0.35558763 -0.061715093 0.141434
000240 e6 93 ef bd 16 56 f6 3c e1 5d 00 3e 3c c6 57 3e
       -0.11698131 0.030070346 0.12535812 0.21071714
000250 2d 26 b1 3d 62 90 d9 3e c7 e4 7f 3e d1 b8 1a 39
       0.086498596 0.42492968 0.24989615 0.00014755434
000260 75 f2 1e 3f 13 6a 95 3e 64 18 92 3d ce a9 94 3e
       0.6208871 0.2918249 0.071335584 0.290358
000270 60 d9 cf 3e 9f 44 e7 3d 2a c9 11 3e 46 ad 91 3e
       0.4059553 0.11292385 0.14236894 0.2845251
000280 7a 35 39 3e da 5f be 3e eb 72 cb 3e 87 71 cf 3e
       0.18086806 0.37182504 0.39736113 0.40516302
000290 ee b7 ab 3d 0e 07 8b 3e e2 df 86 3e 0c 51 e2 3d
       0.08384691 0.2715382 0.26342684 0.11050615
0002a0 96 20 4f bf 58 aa 00 bf 23 58 4f 3e 3d 92 c7 3e
       -0.809091 -0.50259924 0.20248465 0.38978758
0002b0 bb c8 f6 3e f7 89 9d 3e a0 23 e6 3e c6 6a 76 be
       0.4820002 0.3076932 0.44949055 -0.24064168
0002c0 2c 74 a7 3c 80 38 f7 3e 88 4f fd 3c 8f 55 9a 3e
       0.020441137 0.48285294 0.030921713 0.301434
0002d0 0c 23 d8 bd 9b 6d bf 3e 08 a2 09 3e 6a 13 1b 3e
       -0.1055356 0.3738831 0.13440716 0.15144125
0002e0 17 03 f2 be 2e f4 35 be bd cb b9 3e 33 e6 e5 3c
       -0.47267982 -0.17768928 0.36288252 0.02806387
0002f0 d2 93 2f 3e a6 57 78 be 72 62 c0 3e 84 40 99 3e
       0.17146233 -0.24252185 0.37575108 0.29932034
000300 01 b2 bb 3e 01 9a 18 3e 56 51 de 3e f6 39 52 3e
       0.36659244 0.14902498 0.4342143 0.20529923
000310 f3 23 5f 3f ac 89 2c bd 39 17 95 3e 4b c6 55 bd
       0.8716423 -0.04212348 0.2911928 -0.05219106
000320 57 19 f6 3e d3 aa ce be 80 0d 35 3e bb e6 12 bf
       0.48066208 -0.40364704 0.17680931 -0.57383317
000330 2c f3 c8 be be 34 1b bf bf 44 cf 3e 87 90 51 3d
       -0.39248025 -0.60627353 0.40482137 0.051163223
000340 17 9a 46 3e 4e 08 02 bd 66 9d 71 be 3b 0a 5b 3d
       0.19394718 -0.0317462 -0.23595199 0.053476553
000350 de ec 76 be 1f 1a b5 bd 0f 3c 1f 3e aa 44 8d be
       -0.24113795 -0.08842873 0.15550254 -0.2759145
000360 81 40 19 be ec a5 fc bd 46 4c 46 be 05 dd b6 be
       -0.14966013 -0.123363346 -0.19365034 -0.357155
000370 7a 39 01 bf 95 2d bd bd d9 b0 34 3d 8d 9d ed 3d
       -0.5047833 -0.0923721 0.044113968 0.11602316
000380 c4 b4 b7 bb 6e 9e 44 be b8 51 b6 bd 31 3b 99 be
       -0.0056062657 -0.19201061 -0.08902305 -0.29927972
000390 80 bf 59 be fd c7 84 3e 35 47 11 3f 4b 56 13 3e
       -0.21264458 0.2593383 0.5674928 0.14388387
0003a0 94 9f 33 be d2 3b 92 bd f6 0c fc 3c 24 f8 3c 3f
       -0.17541343 -0.07140316 0.030767899 0.7381613
0003b0 82 83 b2 be ad 03 1b bd 94 c1 d0 3e 3c ac 62 be
       -0.34865957 -0.037845302 0.40772688 -0.22136015
0003c0 37 96 48 3e ea 47 b9 bd bd 50 93 bd 6e f7 41 3e
       0.19588552 -0.0904692 -0.07193134 0.18942043
0003d0 5c e4 68 3e 25 77 31 be 6e f6 56 3e e7 a6 d6 be
       0.22743362 -0.17330606 0.20992443 -0.4192421
0003e0 5c 7c ea be 1c 9a c5 be 3c 0f 5b 3e 41 3f f1 bc
       -0.45798004 -0.3859414 0.2139253 -0.029449107
0003f0 77 64 0c bc 08 f4 23 be ad 41 b5 3e 9b 6c c1 be
       -0.008568875 -0.1601106 0.3540167 -0.37778172

sequential_1_1/lstm_1/lstm_cell_1/Cast/ReadVariableOp/resource:0 f4 [1, 200]
000000 d5 64 74 3e 0e 58 50 bf 5a 3b 14 bf 54 20 ac 3e
       0.2386659 -0.8138436 -0.57903063 0.33618414
000010 ce 89 2d 3f 4d 97 ff 3e 62 0c 43 be 70 eb 69 bf
       0.677884 0.4992012 -0.19047692 -0.91374874
000020 1a 9c f7 be 5a ce 00 bf a4 a6 d2 3e 63 6f 23 bf
       -0.48361284 -0.5031487 0.41142762 -0.6384184
000030 ff 08 fa 3c 67 47 91 3e 7a 13 04 bf b2 47 b8 3e
       0.030521868 0.28374788 -0.5159222 0.359922
000040 6f e2 ff 3c aa bb f8 bd 53 42 9a be 50 55 84 be
       0.031235902 -0.12145169 -0.30128726 -0.25846338
000050 23 7c 8a bd e3 c4 dc 3d 0e 7d d3 be f4 a8 9f 3e
       -0.067619585 0.10779741 -0.41306347 0.31183589
000060 78 45 28 bf 21 6f 1c 3f bf 63 31 3e 3a a0 ec 3e
       -0.65731 0.6110707 0.17323206 0.46215993
000070 2e 5a a4 3e 75 be 39 bf fe 60 41 bf 3e 81 ad 3e
       0.32100052 -0.7255624 -0.75538623 0.33887666
000080 7a 36 55 3e 46 11 d6 bd 51 0b af be 70 8d 22 bf
       0.20821562 -0.104525134 -0.3418832 -0.63497066
000090 fa f8 15 3f bd 77 8d be 58 22 a5 bf 72 b9 78 3c
       0.58583033 -0.27630416 -1.2901106 0.015180932
0000a0 2c 50 9e bd 1e 43 89 bd 04 d4 c8 be 7c e3 a3 3e
       -0.07730135 -0.06702255 -0.39224255 0.32009494
0000b0 c6 23 4f bf 14 56 7e 3e 7b 08 1c be ec a5 f9 bd
       -0.8091396 0.24837524 -0.1523761 -0.1218985
0000c0 20 7c 97 3e fa 1a ab 3e 41 25 fa 3e b1 e7 94 be
       0.29586887 0.3341902 0.48856547 -0.29083017
0000d0 bd 8f f8 be c7 3b 8e 3e 73 6a 9c 3d 72 ab c9 bd
       -0.48547164 0.27779981 0.07637491 -0.09847154
0000e0 df a8 00 bf be 13 59 bf 96 f3 be be a3 b2 3b bf
       -0.50257677 -0.8479575 -0.37295216 -0.73319453
0000f0 88 19 4b 3f 79 39 25 bf 36 11 a4 3e 2a 88 0d 3e
       0.7933583 -0.6454082 0.3204438 0.13821474
000100 19 3c 04 bf bf 2f 72 be 1e 2f 8e 3e be dc c8 be
       -0.516542 -0.23651026 0.27770323 -0.39230913
000110 ec 9c 48 bf d4 a2 c6 be 6d 81 42 3e 94 45 f6 3d
       -0.78364444 -0.38796103 0.18994685 0.1202499
000120 6b 77 19 3e d7 39 99 be fe 06 a1 be 7a 20 15 be
       0.1498696 -0.2992694 -0.31450647 -0.1456317
000130 0a a3 d2 3d 56 cc 99 3f 54 b2 48 3e 47 42 20 bf
       0.102850035 1.2015483 0.19599277 -0.6260113
000140 22 96 52 be 72 0d 09 3f 9f f4 1b 3d a4 86 9a be
       -0.20565084 0.5353614 0.038075086 -0.30180848
000150 f6 8b 69 bf cf b7 9d bf d6 27 1a 3f ef 5c 64 3e
       -0.9122919 -1.2321719 0.60217035 0.22301076
000160 d2 85 4a bf 7a 0f 92 be d0 c1 0e 3f ff f9 15 3e
       -0.79110444 -0.28527433 0.55764484 0.14646147
000170 68 0a 13 3d 43 e0 96 3c 0e 48 02 bf d0 6c d5 3b
       0.035898596 0.018417483 -0.50891197 0.0065132156
000180 5a 2e ec bd 2c 58 ec 3d d9 42 d0 3d 1a 38 51 be
       -0.11532278 0.11540255 0.10169 -0.20431557
000190 9c 16 cb 3c f2 66 02 bf 27 e1 13 3e 1c 0a 04 bf
       0.024791054 -0.5093833 0.14441358 -0.51577926
0001a0 7e 01 1d bf f2 ad 3f 3d 31 27 af be 18 9b 59 be
       -0.613304 0.046796747 -0.34209588 -0.2125057
0001b0 48 6e 70 3f 44 94 ff bc 54 d3 2f 3e 28 af bc 3e
       0.93918276 -0.031198628 0.17170459 0.36852384
0001c0 7d f7 c3 3e 52 72 bb be 49 10 ad 3e 61 aa 1b 3e
       0.38274756 -0.36610657 0.33801487 0.15201713
0001d0 11 3c f6 3d 50 19 66 bc ed 2b 07 3f e3 5a 23 bf
       0.120231755 -0.014044121 0.528014 -0.6381056
0001e0 8e 9d ff bd bc b9 92 be 57 ad 7d be e9 c2 dc be
       -0.12481223 -0.2865733 -0.24773155 -0.43117455
0001f0 69 38 8b 3e 9d 66 26 bf 12 fe 0a bf 31 9d 5b 3d
       0.27191475 -0.65000325 -0.5429393 0.053616706
000200 85 d0 9e 3e 50 e1 a2 be ed bc b2 bc df b2 4a 39
       0.31018463 -0.31812525 -0.021818602 0.00019330856
000210 88 5d fd 3e ef 78 5f 3e 71 a0 4c bf 82 3d 45 bf
       0.4948542 0.21823476 -0.79932314 -0.7704698
000220 ec 12 1a 3e 88 01 c6 3e c8 16 f7 3e 17 4d ba be
       0.1504628 0.38673043 0.48259568 -0.3638694
000230 4d 2a 95 bd de 70 99 bd f7 e1 8c 3d 2e 38 e8 3e
       -0.07283459 -0.07492231 0.06879037 0.45355362
000240 da 32 a1 be bd 60 d5 3b bf ac 9f 3e 32 aa 7f be
       -0.3148411 0.0065117762 0.31186482 -0.24967268
000250 16 66 08 3f 9b 53 e8 be ed bb e9 3e b7 00 ee be
       0.5328077 -0.45376286 0.45651188 -0.4648492
000260 a5 a2 0d bf bd af 13 3f 7f c5 41 3f 63 80 03 c0
       -0.553263 0.5769003 0.7569198 -2.054711
000270 b1 ee c2 be e1 6b e1 bf a2 94 4a bf 53 a2 b7 bf
       -0.38072732 -1.7611047 -0.79133046 -1.4346412
000280 6b 9c 87 3f 32 e9 0f bf 3c a8 13 3f fd b0 9c 3e
       1.059461 -0.562152 0.5767858 0.3060378
000290 bb 39 4b bf bb 47 c5 bf 5d 4d 54 3e d4 d6 36 bf
       -0.79384965 -1.5412515 0.20732637 -0.7142155
0002a0 fb aa cd be 9e 82 39 3e d4 81 de 3d c2 35 8c 3d
       -0.4016951 0.18116233 0.108646065 0.06846191
0002b0 73 9b 6a be 49 41 6c 3f 9e 8c 91 bf e9 ed 24 3f
       -0.22910862 0.9228712 -1.1371038 0.6442552
0002c0 b3 a2 3d 3d 86 2f f8 3f 63 a8 90 bf b9 f2 64 bf
       0.04629774 1.9389503 -1.1301388 -0.89432865
0002d0 13 45 4e bf 4f c6 23 3f b5 42 ac 3d 0e d9 e6 bf
       -0.8057415 0.6397447 0.08411161 -1.803499
0002e0 c8 5a 90 bf 79 8b ef bf 12 3f 82 3f 79 f0 6e 3e
       -1.1277704 -1.8714439 1.0175498 0.2333392
0002f0 45 95 b1 bf 9e 50 6b 3e 7a 94 2c 3e d1 66 67 be
       -1.3873678 0.22979972 0.16853514 -0.22597815
000300 7f e8 b8 be f1 b1 fa 3e 3c 10 9f bf e1 3e 7d 3e
       -0.3611488 0.48963884 -1.2426829 0.24731018
000310 11 34 ad bd 9c 32 e2 bf bc eb 23 3f e5 1f a4 3e
       -0.084571965 -1.7671695 0.6403158 0.32055584

sequential_1_1/dense_1_1/Cast/ReadVariableOp:0 f4 [50, 1]
000000 2f 46 68 be 4e 9e 8b be f9 a6 c9 3c 71 5c ca be
       -0.22683023 -0.27269214 0.024615752 -0.39523652
000010 6a a4 85 be 77 76 71 be ee e9 10 be 88 39 76 be
       -0.26102 -0.23580347 -0.14151737 -0.24045384
000020 41 78 00 3f 65 19 99 bd 1a 85 d4 3e 6d 91 4d be
       0.5018349 -0.07475547 0.41507798 -0.20075007
000030 94 35 a7 bd 4d 58 53 3e 85 7f 87 3c 99 a8 1e be
       -0.08164516 0.20639153 0.016540298 -0.15494002
000040 5d c5 4b 3e 58 cf 48 bd e0 29 42 3f 23 6b bc be
       0.19899507 -0.049025863 0.75845146 -0.3680049
000050 90 94 19 bb b7 9b 69 be d3 04 23 be 95 60 a1 3e
       -0.0023434497 -0.22813307 -0.15919809 0.31519
000060 c9 47 5b 3e 41 34 29 3d bb d7 1e be 82 36 a0 3e
       0.21414103 0.0413096 -0.15511982 0.31291586
000070 c7 1e 8d be 94 0c 10 be 97 e2 1c be aa 10 47 be
       -0.27562544 -0.14067298 -0.15320812 -0.1943995
000080 0f d2 1f 3e aa 13 87 3e 4e ad 23 be 03 e7 70 be
       0.15607475 0.2638219 -0.15984079 -0.23525624
000090 56 09 a6 be b8 95 d1 3d c9 61 5d 3e bd 80 51 be
       -0.32428998 0.10233635 0.21619333 -0.20459266
0000a0 f3 49 43 3e ef 20 52 3e 77 77 a1 bd eb 5f 71 3e
       0.19071178 0.20520376 -0.07884114 0.23571746
0000b0 e7 04 49 be ac f6 1a 3e c3 2d d3 3d c8 78 b6 3e
       -0.19630776 0.1513316 0.10311463 0.35639024
0000c0 bd 9a 89 3e e2 41 de 3b
       0.26875868 0.006782756
