models/SimpleRNN_model_mae.onnx (onnx, 19303 bytes, 4 tensors)

sequential_3_1/simple_rnn_1_1/simple_rnn_cell_1/add/ReadVariableOp/resource:0 f4 [50]
0.07250175 -0.03693406 -0.012624708 -0.21626689 -0.2407117 0.043159485 0.24615599 -0.1605411
0.020313518 0.15632084 -0.018679198 -0.08838545 0.11937988 0.5205088 0.041592307 -0.0019389552
-0.07955478 -0.09759727 -0.10694402 -0.1831161 -0.14744388 0.34286264 0.01746634 -0.14478444
-0.19669636 0.059381343 0.004844587 0.23602188 -0.1484975 0.07762864 0.314314 0.09694148
-0.5357923 0.027114503 0.43929 0.31845036 0.02222531 -0.07433744 -0.03787142 0.58901757
0.110357516 0.13941646 0.04934757 0.04183021 0.44461462 -0.16618249 -0.023473108 0.12148314
0.33152413 0.21271394
00000000: cc7b 943d 2b48 17bd ddd7 4ebc 1175 5dbe
00000010: 217d 76be 00c8 303d 5110 7c3e e364 24be
00000020: 8968 a63c 9212 203e 1e05 99bc 6e03 b5bd
00000030: 707d f43d 1140 053f b25c 2a3d 8a24 feba
00000040: 9eed a2bd 14e1 c7bd 7705 dbbd c982 3bbe
00000050: 87fb 16be b18b af3e 9215 8f3c 5f42 14be
00000060: c56a 49be da39 733d 57bf 9e3b b8af 713e
00000070: bb0f 18be c4fb 9e3d c4ed a03e 4189 c63d
00000080: af29 09bf 3c1f de3c 9eea e03e ed0b a33e
00000090: da11 b63c 3a3e 98bd 101f 1bbd dbc9 163f
000000a0: 1f03 e23d 30c3 0e3e ad20 4a3d 2756 2b3d
000000b0: 87a4 e33e be2b 2abe ad4a c0bc 27cc f83d
000000c0: 88bd a93e afd1 593e

sequential_3_1/simple_rnn_1_1/simple_rnn_cell_1/Cast_1/ReadVariableOp/resource:0 f4 [50, 50]
0.0045247665 0.006227919 -0.053469647 -0.1343376 -0.077470325 0.39234385 -0.3353328 0.052134365
0.034571964 0.0051731225 -0.20010544 0.103961326 -0.0962817 0.064289376 0.28800648 2.8452167e-05
0.21291505 0.03435832 -0.0018429024 0.061642908 0.18191884 -0.41166338 0.18648611 0.026028413
0.053883936 -0.044754073 0.1782438 0.019897083 -0.003651575 -0.087161936 0.0014924558 -0.13180114
0.0008511293 -0.0243112 -0.068091504 0.14711183 0.0059897816 -0.08170139 0.08016705 -0.08435865
-0.06851449 0.012629634 0.124803275 -0.2771793 -0.121377036 0.08768323 -0.07174828 0.062441077
-0.73527396 0.09524179 -0.13597704 -0.065391235 -0.047323305 -0.15016752 -0.11558289 0.10374504
-0.06400357 0.2414287 0.04673646 0.0921762 -0.15377139 0.111175604 0.031111026 -0.019592036
0.12998952 -0.16751686 0.09073117 0.109752335 -0.08481807 0.12358917 -0.16148658 0.12621468
0.12284201 -0.044998076 0.024546025 -0.17656226 0.019190183 0.070956245 0.11553199 0.1671181
0.051455893 -0.14483514 -0.013173169 0.09068706 -0.14406972 -0.023596888 -0.0021979748 0.22548476
-0.07163411 0.0027943135 0.11061056 -0.10520538 -0.18118216 0.027858734 -0.026398687 -0.033622265
-0.09615269 0.18046121 0.11519604 0.0022891527 -0.07782578 0.07963788 -0.2652857 0.17023815
0.27260652 -0.07732858 -0.05447833 0.112682916 0.072134234 -0.013005882 -0.30179456 -0.20624764
0.18659574 0.051037077 0.0053806193 0.0042755236 -0.19951361 -0.10357869 -0.040281147 -0.11983095
-0.16616416 0.19844443 -0.027033757 0.0012593024 -0.0075268373 0.08434486 -0.1557806 -0.094572246
0.017108485 -0.20697302 0.049346387 0.16654088 -0.17681004 -0.2144652 0.09877786 -0.18538295
0.15260553 0.0023344147 0.005086685 -0.079451844 -0.06836114 0.02811777 -0.2174128 0.29003716
-0.2781522 0.39776284 0.027215065 -0.09419445 -0.04841138 -0.008059714 -0.0799718 -0.2096379
0.046178646 0.1275552 -0.22551744 -0.14000474 -0.028661735 -0.15265402 -0.20657201 -0.023530196
-0.15370391 -0.04686798 0.20845595 -0.09190748 0.09908723 0.005087966 -0.14218904 0.112181336
0.023513367 0.08086726 0.05912521 -0.27358902 0.058468677 -0.008658479 -0.07493221 -0.3479796
0.15679073 0.14243919 0.046844415 0.19841902 0.29335403 -0.020722188 0.015877092 -0.26484448
0.037738513 -0.04997965 0.22491589 -0.15259732 0.29769376 0.10346633 0.11828075 0.064866886
-0.07158133 0.30440098 0.28078243 -0.28428915 0.01164247 -0.14684206 0.04938968 -0.21541713
-0.15769042 -0.057772107 0.2959506 0.22252741 -0.12206784 -0.2923212 -0.10363173 0.14104657
0.021949252 -0.21370639 -0.1097311 -0.19100928 0.012803326 0.04304133 -0.37607783 0.011426148
0.16460964 -0.079129726 -0.09891678 0.1899769 -0.10706376 -0.18178524 0.11334717 -0.035611566
0.04353589 -0.11378427 0.18143176 0.040104605 -0.020387555 -0.014572654 -0.08719719 -0.13982005
-0.024181947 0.25918025 -0.05410874 -0.18464553 -0.5290289 -0.045086604 -0.12525022 -0.00245552
0.17312251 0.044455517 0.08496136 0.13963819 -0.001196545 0.0300064 0.1258144 -0.06514006
0.86721396 0.0811491 0.43276167 -0.029738633 0.44357923 -0.30348244 0.0041712373 0.28158018
00000000: 7e44 943b 9213 cc3b fd02 5bbd cc8f 09be
00000010: c3a8 9ebd 4be1 c83e beb0 abbe d88a 553d
00000020: 559b 0d3d 4c83 a93b 71e8 4cbe ade9 d43d
00000030: 572f c5bd 26aa 833d 9675 933e 90ac ee37
00000040: 6706 5a3e 4fbb 0c3d 8b8d f1ba 467d 7c3d
00000050: ef48 3a3e 8bc5 d2be 37f6 3e3e 8a39 d53c
00000060: 67b5 5c3d 0c50 37bd 8b85 363e 35ff a23c
00000070: 434f 6fbb f581 b2bd 829e c33a e1f6 06be
00000080: 521e 5f3a 4828 c7bc 8f73 8bbd 7ca4 163e
00000090: ee45 c43b 0f53 a7bd 9f2e a43d 3ac4 acbd
000000a0: 5351 8cbd 86ec 4e3c dc98 ff3d 72ea 8dbe
000000b0: 8694 f8bd 4493 b33d c3f0 92bd 37c2 7f3d
000000c0: ea3a 3cbf 210e c33d 913d 0bbe d7eb 85bd
000000d0: 15d6 41bd 84c5 19be b9b6 ecbd 4878 d43d
000000e0: 4e14 83bd 1639 773e bb6e 3f3d e0c6 bc3d
000000f0: 3f76 1dbe 09b0 e33d 8ddc fe3c 7a7f a0bc
00000100: f91b 053e 8a89 2bbe 43d1 b93d d5c5 e03d
00000110: 19b5 adbd 521c fd3d bd5c 25be 6c3e 013e
00000120: 9794 fb3d e74f 38bd bf14 c93c bdcc 34be
00000130: bb34 9d3c 8251 913d 099c ec3d 0221 2b3e
00000140: 6ac3 523d aa4f 14be 47d4 57bc 23ba b93d
00000150: 0387 13be 434e c1bc e60b 10bb 7ae5 663e
00000160: e7b4 92bd cd20 373b ca87 e23d eb75 d7bd
00000170: d187 39be 0038 e43c 0f42 d8bc 80b7 09bd
00000180: b4eb c4bd d3ca 383e e7eb eb3d 9c05 163b
00000190: 1f63 9fbd 2f19 a33d 87d3 87be e952 2e3e
000001a0: 1593 8b3e 725e 9ebd ab24 5fbd 4dc6 e63d
000001b0: 1dbb 933d 9f16 55bc d184 9abe 9532 53be
000001c0: f412 3f3e 410c 513d e84f b03b b119 8c3b
000001d0: 4c4d 4cbe 1021 d4bd d8fd 24bd ee69 f5bd
000001e0: f026 2abe 0435 4b3e e675 ddbc 2d0f a53a
000001f0: b0a3 f6bb ffbc ac3d f384 1fbe 18af c1bd
00000200: 1827 8c3c bcf0 53be 701f 4a3d b189 2a3e
00000210: b10d 35be c49c 5bbe 0c4c ca3d 07d5 3dbe
00000220: a044 1c3e fbfc 183b 35ae a63b a6b7 a2bd
00000230: ed00 8cbd 3d57 e63c 76a1 5ebe c07f 943e
00000240: f769 8ebe 92a7 cb3e 21f2 de3c 05e9 c0bd
00000250: 034b 46bd e40c 04bc 41c8 a3bd 51ab 56be
00000260: d225 3d3d d59d 023e 0bee 66be 675d 0fbe
00000270: 04cc eabc 5651 1cbe 9d87 53be 66c2 c0bc
00000280: 8f64 1dbe a4f8 3fbd 7a75 553e fd39 bcbd
00000290: 3fee ca3d f4b8 a63b 019a 11be 54bf e53d
000002a0: 1b9f c03c bc9d a53d 472d 723d dc13 8cbe
000002b0: da7c 6f3d 4bdc 0dbc 0f76 99bd 622a b2be
000002c0: c08d 203e 94db 113e eedf 3f3d 5b2e 4b3e
000002d0: 8032 963e 94c1 a9bc ad10 823c b299 87be
000002e0: b393 1a3d 76b7 4cbd 5a50 663e 7942 1cbe
000002f0: 516b 983e 28e6 d33d 2e3d f23d eed8 843d
00000300: 3b99 92bd 72da 9b3e b7c2 8f3e 598e 91be
00000310: 0fc0 3e3c c45d 16be d54c 4a3d 4f96 5cbe
00000320: 9979 21be 72a2 6cbd d686 973e 3ade 633e
00000330: b4fe f9bd 20ab 95be df3c d4bd 836e 103e
00000340: ebce b33c d9d5 5abe b3ba e0bd f097 43be
00000350: 0bc5 513c 1b4c 303d 468d c0be bd34 3b3c
00000360: 6e8f 283e c40e a2bd e194 cabd 4e89 423e
00000370: 3f44 dbbd e925 3abe 9022 e83d 6fdd 11bd
00000380: b052 323d ba07 e9bd 3fc9 393e ba44 243d
00000390: cd03 a7bc 24c2 6ebc 7194 b2bd fd2c 0fbe
000003a0: 3819 c6bc 46b3 843e 20a1 5dbd b813 3dbe
000003b0: 706e 07bf bbac 38bd 9841 00be caec 20bb
000003c0: 0747 313e fd16 363d 3900 ae3d 50fd 0e3e
000003d0: 63d5 9cba fbcf f53c 7dd5 003e 2768 85bd
000003e0: bc01 5e3f 8031 a63d f092 dd3e 6f9e f3bc
000003f0: d11c e33e 0d62 9bbe e0ae 883b 472b 903e

sequential_3_1/simple_rnn_1_1/simple_rnn_cell_1/Cast/ReadVariableOp/resource:0 f4 [1, 50]
-0.032895043 0.05167868 0.6809262 1.0260096 0.14962165 0.13835013 -0.27549085 0.08317402
0.010732706 -0.5422931 0.6739216 0.36008328 -0.3380741 -0.71984583 0.7209489 0.0031161103
0.5774886 0.31769073 0.27604067 0.25596705 0.2279165 -0.50223684 -0.0066409204 0.2172779
0.34623933 -0.10557839 -0.10865414 -0.467382 0.24641286 -0.084489755 -0.4864121 -0.3518322
1.0445672 0.3833293 -0.7920972 -0.49288392 0.6355217 0.20279849 -0.48857325 -0.89586425
-0.24049789 -0.2237066 0.09182426 -0.44708735 -0.69680244 0.4071404 0.10286521 -0.16900904
-0.7242765 -0.34147012
00000000: f4bc 06bd 06ad 533d 2e51 2e3f 4854 833f
00000010: 6b36 193e a8ab 0d3e 230d 8dbe 2457 aa3d
00000020: 3bd8 2f3c b8d3 0abf 2086 2c3f d65c b83e
00000030: 0c18 adbe d147 38bf 1b90 383f a837 4c3b
00000040: 4bd6 133f 5ca8 a23e 3455 8d3e 1d0e 833e
00000050: f162 693e 9892 00bf 149c d9bb 197e 5e3e
00000060: 4846 b13e 7c39 d8bd 1086 debd b24c efbe
00000070: a753 7c3e f708 adbd 020b f9be 5a23 b4be
00000080: 61b4 853f bd43 c43e e2c6 4abf 485b fcbe
00000090: 8db1 223f 68aa 4f3e 4626 fabe 5c57 65bf
000000a0: 1445 76be 5813 65be 5c0e bc3d a2e8 e4be
000000b0: a561 32bf b574 d03e ffaa d23d b510 2dbe
000000c0: 2f6a 39bf 2cd5 aebe

sequential_3_1/dense_3_1/Cast/ReadVariableOp:0 f4 [50, 1]
-0.033800542 -0.0024562164 0.24764132 0.12340749 0.07355386 0.039292593 -0.0040130103 0.025670052
0.0011005551 -0.2646862 0.2991941 0.09157291 -0.063739166 -0.026632544 0.37239298 0.0008223029
0.13181935 0.067699045 0.017305288 0.005782896 -0.0061205053 -0.028243503 -0.0075872177 0.0006235306
-0.002820817 -0.006979608 0.010736345 -0.016069604 0.013654185 0.010431113 0.024075152 0.015599544
0.2866334 0.046895534 -0.06999365 0.009807618 0.2526983 0.008912769 -0.27862847 -0.08722696
-0.0020811034 -0.0059228744 -0.04232943 -0.0030407368 -0.017961634 0.01945487 -0.034512058 -0.004381276
0.0028685124 -0.010019179
00000000: 7072 0abd 79f8 20bb b095 7d3e 11bd fc3d
00000010: 68a3 963d 45f1 203d 927f 83bb 004a d23c
00000020: 8040 903a f384 87be f82f 993e 948a bb3d
00000030: ae89 82bd 7e2c dabc 4baa be3e d08f 573a
00000040: a7fb 063e cca5 8a3d d2c3 8d3c 737e bd3b
00000050: 858e c8bb eb5e e7bc 329e f8bb 6e74 233a
00000060: 75dd 38bb 32b5 e4bb 7fe7 2f3c 67a4 83bc
00000070: ceb5 5f3c 42e7 2a3c 4139 c53c 3b95 7f3c
00000080: 9dc1 923e 8815 403d d558 8fbd 22b0 203c
00000090: ac61 813e dd06 123c 64a8 8ebe 0ca4 b2bd
000000a0: 1f63 08bb ac14 c2bb a061 2dbd 1947 47bb
000000b0: 4724 93bc d25f 9f3c 845c 0dbd cf90 8fbb
000000c0: a7fd 3b3b 7c27 24bc
