models/SimpleRNN_model_mse.onnx (onnx, 18774 bytes, 4 tensors)

sequential_1/simple_rnn_1/simple_rnn_cell_1/add/ReadVariableOp/resource:0 f4 [50]
00000000: 78cc 98be 07ec 193e a409 dfbe 30a1 513e
00000010: 5b9d 303e 2038 c6be 9acc 76be 13e0 cb3b
00000020: e008 f83d 3d22 67be a4bf b43b 3de3 82be
00000030: 5f63 25be ab6e 463e 033d 40bd f6ba ef3d
00000040: 3c0f 5a3e eb47 d03b 26b2 933e 05a1 34bd
00000050: 3f64 edbc 0216 2abe 8737 a83d f68c 143b
00000060: a146 7dbe 5584 6cbd bbd4 1e3d 066b ce3d
00000070: aa05 1bbf 404b 7f3c 8f8f 753e 656a 0cbe
00000080: 8d3a c43e ef17 1d3e 09ff 813e c508 1a3e
00000090: af18 3c3d 32aa a5ba cd98 a13d 201f 723d
000000a0: 8195 f03d 0a9c babe 96cc d7be c008 b13e
000000b0: 193f 313e d9af b8bd 8ac5 a83d fb95 8c3d
000000c0: 6da7 d33d c96b 2a3e
-0.29843497 0.15031444 -0.43562043 0.20471644 0.17247526 -0.38714695 -0.24101487 0.00622178
0.12111068 -0.22571655 0.0055160094 -0.25563994 -0.16151188 0.19378154 -0.046933185 0.11705582
0.21294874 0.0063562295 0.28846854 -0.044098873 -0.028978465 -0.16609958 0.08213716 0.0022667027
-0.24733974 -0.05774339 0.038777094 0.10079007 -0.6055552 0.015581906 0.23980545 -0.13712461
0.3832592 0.15341161 0.2538989 0.15042408 0.045921978 -0.0012639223 0.078904726 0.059111714
0.117472656 -0.36447173 -0.42148274 0.34576988 0.17309226 -0.09017915 0.082408026 0.06864544
0.10334668 0.1664268

sequential_1/simple_rnn_1/simple_rnn_cell_1/Cast_1/ReadVariableOp/resource:0 f4 [50, 50]
00000000: f60e 303e e75d 4cbd 9c9b c5bd bd67 0d3e
00000010: 6f05 5a3d 494f a2be d027 fa3d 4abd e8bd
00000020: fb9b 713d 4cdf 01be c49d 9cbd 3642 953d
00000030: 05a7 aebd 7de1 a13d e30a 6abc 24c7 883d
00000040: c80a 19be 362a d6bd 11d6 8bbe 873d 563e
00000050: 7c65 f13d 2a4d 0ebe 8ac5 0ebd ec9f 46bd
00000060: e6e9 9fbd 92b7 20bd 5d11 1c3e 8a6c ed3d
00000070: fa13 183e 0f23 84be f98c 45be 9893 253e
00000080: 1140 f43d cbe8 1dbe de08 7c3d 761f b6bc
00000090: d876 3f3e d18f 803c 047e 5abe 7fa6 4f3d
000000a0: 7929 a2bc d8d0 7fbc 793f 1ebe fbc1 d73d
000000b0: 7bbb fe3d c7cd dc3c 39e0 393d a21b 833e
000000c0: 30c8 92be a00b ebbd c893 4cbd 8a98 06be
000000d0: 1233 d63d b752 9ebc a2a3 35be fdeb 163e
000000e0: 567f 443d dcb0 8fbc 0f70 86bd 5f56 6f3d
000000f0: 4021 fbbd 63ec 77be 452a 95bb 29c2 353e
00000100: 309b 4cbe 371f e7bc c639 0abe 7053 9c3d
00000110: 79fc 523e 06d0 cebd 1054 333e 762b 2cbd
00000120: d621 af3c 41f2 87bd 9fee 8bbd 5e50 a3bd
00000130: 8dd5 d1bd af6c 99bd 66b0 cfbd 63b7 76bd
00000140: cdf4 693e 0dcf 623e 508b eaba ff04 c7bd
00000150: edf8 c83c f594 2f3e ab5f d3bd 68ab 89bc
00000160: 90a7 0dbe 56d4 123e c1c3 e23d d0a2 f23a
00000170: a9d4 7fbd ff84 88be 8f2b a6be d717 683e
00000180: 9a7c 383e d7ca 8c3e 17d0 173e a4c6 0cbe
00000190: 011d 9abe c403 113e f23f cabc 7fe2 043d
000001a0: 41ae 6fbd b59c 10be b7aa 1abd 0f0c bcbd
000001b0: 2b2f f4bd a0eb 2abe 98d7 5fbe 4ce9 c8ba
000001c0: 4588 69be 120d 363c 6de2 dabd fa48 8e3e
000001d0: eb2a 6e3d 2631 203e 6b7c 74be 2f7e adbd
000001e0: 71a3 a43e 1e29 a93b 72f2 39bc d08e 61be
000001f0: dc5d 0cbe f62a ae3e 6399 25be 65fc 023c
00000200: 034e 673d c09c b63c 3b1e 01be 0475 6e3f
00000210: 03dc cc3c 9cf1 89be d3be 723c 5ec5 143e
00000220: 8807 553e d8f9 4bbe 84b5 c4bd 11b0 d03d
00000230: 1240 3f3d 0acc cebe 6077 1b3d 9bf0 503b
00000240: 81f0 bf3d c938 41be c20a 73be ebed 223e
00000250: 8c97 013d 389b d53c 7e6f 3f3d 7fb9 0f3e
00000260: e543 16bd 4cff 50bd 4c6e ad3d e911 1f3e
00000270: b1fb bfbd 721c 6abd cd42 4d3e 40b1 6c3d
00000280: d803 acbd dc3a a9bd 9d75 69bd 238e 173e
00000290: 582d 94be 72a1 23be b4b5 09bd 4d13 8c3e
000002a0: 4f61 f93d 4468 23be 468c 68bd 32eb 433e
000002b0: ba03 18bd 979f c1bd 314a ee3b e098 27be
000002c0: 0a94 61be 9489 5bbc 6e1d 25be b497 3fbe
000002d0: 6778 8d3d 5201 7bbd 4cee 51be b644 12be
000002e0: 4639 b23d a998 adbd 7c7d 87bd bcb4 013e
000002f0: b357 2bbd f7ae b5bd b4a7 2c3e 4534 b4bd
00000300: f978 723e bf2c 9bbd ae70 64bd 9f61 3a3e
00000310: eeb2 373e 96b0 07bc 081a 03be c6f2 403e
00000320: aff6 9b3e c963 613e 8e9e 903d 9179 e0bc
00000330: 1dda d5bd 4667 a1bb 6691 843d 11d6 a63c
00000340: d546 7ebe 29bd b8bc eb63 dabd 3b54 3b3e
00000350: 3637 ae3d 972a b33d 9b43 25be c6f9 0abe
00000360: 3a68 99bd b485 4d3e 4028 01bb f454 163e
00000370: 8cc3 fabd 73a1 30be 5124 b4be 4baf e2bd
00000380: 60fa d03d 8165 a13c 5264 20bd 6df6 95bd
00000390: 915e 25be f771 963e 2114 633d 8b58 05bf
000003a0: 00cb 03be 92a1 403e 9ace 293d 8d92 a53d
000003b0: ddad 173e d5b3 893e 7b25 263e 8a48 15be
000003c0: f7fd 283e 7e32 a1bd 86ad 293d 78ec 2abe
000003d0: dac5 273e 6897 26be cd58 1ebe a177 533e
000003e0: d7a6 db3c 87a1 373e 27c4 a63d 1b06 a5be
000003f0: b1fc 0ebd fe0d a6bd 98c1 a63c 7edc ad3d
0.17193207 -0.04989424 -0.09648821 0.13809104 0.053227838 -0.31701115 0.12214625 -0.11364229
0.058986645 -0.12682837 -0.07647279 0.07288019 -0.0852795 0.079043366 -0.014284822 0.06678608
-0.14945519 -0.1045727 -0.27311757 0.20921908 0.11786935 -0.13896623 -0.034856357 -0.048492357
-0.078082845 -0.039237566 0.15240999 0.11592968 0.1485137 -0.25807998 -0.19292058 0.16169584
0.11926282 -0.15420835 0.061531894 -0.022231799 0.18697679 0.015693577 -0.21337134 0.050695892
-0.019795166 -0.015613757 -0.154539 0.10535046 0.12438103 0.026953591 0.04537985 0.2560702
-0.28668356 -0.11476827 -0.049945623 -0.13144127 0.1045896 -0.01932655 -0.17738202 0.1473846
0.047973 -0.017540388 -0.06564342 0.05843198 -0.12262201 -0.24211268 -0.004552158 0.17749847
-0.19981074 -0.028213127 -0.13498601 0.07633102 0.20604123 -0.10098271 0.17512536 -0.042033635
0.021378439 -0.06638003 -0.06832623 -0.07974313 -0.1024581 -0.07491433 -0.10141067 -0.060233485
0.2284729 0.22149296 -0.0017894302 -0.0971775 0.02453276 0.17146666 -0.103209816 -0.016805366
-0.13833451 0.14338812 0.11072493 0.0018511657 -0.062458668 -0.26663968 -0.32455108 0.22665344
0.18016282 0.27498505 0.14825474 -0.1374765 -0.30100253 0.14161593 -0.024688695 0.032442566
-0.05851579 -0.14122279 -0.037760463 -0.091819875 -0.11923059 -0.16691446 -0.21859586 -0.0015328317
-0.22805889 0.011111515 -0.106877185 0.27790052 0.0581464 0.15643749 -0.23875587 -0.08471333
0.32155946 0.0051623723 -0.011349307 -0.22027135 -0.1370768 0.34017152 -0.16171794 0.007994746
0.056470882 0.022291541 -0.12609188 0.931473 0.025007254 -0.26942146 0.014816004 0.14528415
0.20803654 -0.19919527 -0.09604934 0.10189832 0.04669196 -0.40390044 0.03795564 0.0031881693
0.09372044 -0.18869318 -0.23734573 0.15911071 0.031638667 0.02607499 0.046737187 0.14035605
-0.036685843 -0.05102472 0.08468303 0.15534176 -0.09374178 -0.057156034 0.20045014 0.057786226
-0.08399171 -0.0826318 -0.05699693 0.14800315 -0.28940845 -0.15979555 -0.03362055 0.27358475
0.12176763 -0.15957743 -0.0567744 0.19132689 -0.03711293 -0.094542675 0.007272028 -0.16366911
-0.22029129 -0.0133995 -0.16124508 -0.18710214 0.069077305 -0.061280556 -0.2050106 -0.14284024
0.0870233 -0.08476383 -0.06615731 0.12666601 -0.041831683 -0.088712625 0.16860849 -0.08799032
0.2367896 -0.07576894 -0.055771522 0.18201302 0.1793935 -0.008281847 -0.12802899 0.1884261
0.30461642 0.22010721 0.07061492 -0.027401717 -0.104419924 -0.004925641 0.06473045 0.020365747
-0.24831708 -0.022551136 -0.10663589 0.1829385 0.085066244 0.08748358 -0.1613907 -0.13571844
-0.07490583 0.20070535 -0.0019707829 0.14680845 -0.12244329 -0.17249088 -0.35183957 -0.11068591
0.10204005 0.019701721 -0.039158173 -0.073223926 -0.16149355 0.29383823 0.05543912 -0.5208823
-0.12870407 0.18811634 0.041456796 0.08084593 0.14812417 0.26895013 0.16225235 -0.14578453
0.1650313 -0.07870959 0.04142525 -0.16691768 0.16384068 -0.16268694 -0.15463562 0.20651104
0.026812954 0.17932712 0.08142882 -0.3223122 -0.034908954 -0.081081375 0.020355985 0.08489321

sequential_1/simple_rnn_1/simple_rnn_cell_1/Cast/ReadVariableOp/resource:0 f4 [1, 50]
00000000: 7eec d53e 92fb 54be c412 3e3f 23a4 a2be
00000010: e756 a3be ae98 023f 8cba c53e 30f6 56be
00000020: c107 21be dc56 e03e 681f 1bbe 99df c33e
00000030: 83fd 653e bb2a d9be 7140 033f dd5c 4dbd
00000040: fa3b dabe 87f8 473f e333 7fbe b766 dabe
00000050: 38e2 0b3f 404a 723e 7ae7 68be 9c1d 44be
00000060: 610c d93e 2ffe b43e 1815 2bbd 9ea1 f3bd
00000070: 9cd8 633f e90e a6bd ac87 98be 7fc1 5d3f
00000080: 6243 12bf f3cd 8fbe 4838 11bf 782b debe
00000090: 3a75 b73e afbd e13e dd10 1ebe 18ba 75bc
000000a0: 0141 82be 9aaf ef3e f786 b33e c69c 0cbf
000000b0: 172c 86be ebc9 033e aae3 72bf 8133 39be
000000c0: 471e 10be b6eb a5be
0.41781992 -0.20799091 0.74247384 -0.3176585 -0.3190224 0.5101422 0.38618886 -0.2099235
-0.15725614 0.43816268 -0.151487 0.3825653 0.22459988 -0.42415413 0.51270205 -0.05013739
-0.42623883 0.781136 -0.24922137 -0.4265649 0.5464206 0.23661137 -0.22744551 -0.1915192
0.42392257 0.35350177 -0.041768163 -0.118960604 0.89002395 -0.08108313 -0.2979101 0.86623377
-0.5713407 -0.28086814 -0.56726503 -0.4339254 0.35831624 0.4409003 -0.1543612 -0.0149979815
-0.2544022 0.4681366 0.35063908 -0.5492672 -0.26205513 0.12869994 -0.9487864 -0.18086053
-0.1407405 -0.32406396

sequential_1/dense_1/Cast/ReadVariableOp:0 f4 [50, 1]
00000000: b3e5 fcbb f25d 063c ba8d 94bd 4514 b0bc
00000010: 9a0a abbd a689 78bd 56fc dd3c 29cc 02be
00000020: 4a49 f13b cb5e d53c ea65 68bd e4a7 ea3c
00000030: b641 a43d acea 9a3d 69d1 d83e b335 f8bd
00000040: 9140 293d ad8c 2e3f 70a4 573c eb8f 6cbd
00000050: faf3 b43e 0681 ecbc 4b0d b8bc f399 81bd
00000060: 909d afbc 8223 0c3e e138 1e3c b948 3d3b
00000070: 09d5 2c3e 90d5 90bc 7a1c de3d da3f 043e
00000080: 900e 8b3c 3bd7 043d 3419 583d f758 52be
00000090: 4700 873e 1370 bb3e 9fa9 e83c 7306 6cbc
000000a0: f06f 1bbd 8742 6bbd 42d7 e13b 7bfd 10be
000000b0: d680 82bc a374 e1bc d4d1 c8be 2b00 7b3c
000000c0: b4d9 8e3b a1fc cf3b
-0.007717812 0.008201109 -0.07253595 -0.02149404 -0.083516315 -0.060678147 0.027097862 -0.12773193
0.007363473 0.026046177 -0.056737818 0.02864451 0.08020346 0.07564291 0.42347267 -0.12119617
0.04132134 0.68183404 0.013161764 -0.05775444 0.3534239 -0.028870117 -0.022467276 -0.063281916
-0.021437436 0.1368542 0.009657116 0.0028882457 0.16878141 -0.01767996 0.10845275 0.12914982
0.016974717 0.032431822 0.05275841 -0.2054175 0.263674 0.36608943 0.028401194 -0.0144058345
-0.03794855 -0.057436492 0.006892116 -0.14159195 -0.015930574 -0.027521437 -0.39222586 0.015319864
0.0043594483 0.0063472544
